HloModule jit__unstack, entry_computation_layout={(u32[3,2]{0,1:T(2,128)})->(u32[2]{0:T(128)}, u32[2]{0:T(128)}, u32[2]{0:T(128)})}, allow_spmd_sharding_propagation_to_parameters={true}, allow_spmd_sharding_propagation_to_output={true,true,true}

%slice.4.reduce_sub_computation (lhs.2: u32[], rhs.2: u32[]) -> u32[] {
  %lhs.2 = u32[] parameter(0)
  %rhs.2 = u32[] parameter(1)
  ROOT %add.2 = u32[] add(%lhs.2, %rhs.2)
}

%fused_computation (param_0.6: u32[3,2]) -> u32[2] {
  %param_0.6 = u32[3,2]{0,1:T(2,128)} parameter(0)
  %slice.0 = u32[1,2]{0,1:T(2,128)} slice(%param_0.6), slice={[2:3], [0:2]}, metadata={op_name="jit(_unstack)/jit(main)/split" source_file="/home/ptoulme/tpu.py" source_line=79}
  %constant.3 = u32[]{:T(128)} constant(0), metadata={op_name="jit(_unstack)/jit(main)/split" source_file="/home/ptoulme/tpu.py" source_line=79}
  ROOT %reduce.3 = u32[2]{0:T(128)} reduce(%slice.0, %constant.3), dimensions={0}, to_apply=%slice.4.reduce_sub_computation, metadata={op_name="jit(_unstack)/jit(main)/split" source_file="/home/ptoulme/tpu.py" source_line=79}
}

%slice.3.reduce_sub_computation (lhs.1: u32[], rhs.1: u32[]) -> u32[] {
  %lhs.1 = u32[] parameter(0)
  %rhs.1 = u32[] parameter(1)
  ROOT %add.1 = u32[] add(%lhs.1, %rhs.1)
}

%fused_computation.1 (param_0.7: u32[3,2]) -> u32[2] {
  %param_0.7 = u32[3,2]{0,1:T(2,128)} parameter(0)
  %slice.1 = u32[1,2]{0,1:T(2,128)} slice(%param_0.7), slice={[1:2], [0:2]}, metadata={op_name="jit(_unstack)/jit(main)/split" source_file="/home/ptoulme/tpu.py" source_line=79}
  %constant.4 = u32[]{:T(128)} constant(0), metadata={op_name="jit(_unstack)/jit(main)/split" source_file="/home/ptoulme/tpu.py" source_line=79}
  ROOT %reduce.4 = u32[2]{0:T(128)} reduce(%slice.1, %constant.4), dimensions={0}, to_apply=%slice.3.reduce_sub_computation, metadata={op_name="jit(_unstack)/jit(main)/split" source_file="/home/ptoulme/tpu.py" source_line=79}
}

%slice.2.reduce_sub_computation (lhs: u32[], rhs: u32[]) -> u32[] {
  %lhs = u32[] parameter(0)
  %rhs = u32[] parameter(1)
  ROOT %add = u32[] add(%lhs, %rhs)
}

%fused_computation.2 (param_0.8: u32[3,2]) -> u32[2] {
  %param_0.8 = u32[3,2]{0,1:T(2,128)} parameter(0)
  %slice.5 = u32[1,2]{0,1:T(2,128)} slice(%param_0.8), slice={[0:1], [0:2]}, metadata={op_name="jit(_unstack)/jit(main)/split" source_file="/home/ptoulme/tpu.py" source_line=79}
  %constant.5 = u32[]{:T(128)} constant(0), metadata={op_name="jit(_unstack)/jit(main)/split" source_file="/home/ptoulme/tpu.py" source_line=79}
  ROOT %reduce.5 = u32[2]{0:T(128)} reduce(%slice.5, %constant.5), dimensions={0}, to_apply=%slice.2.reduce_sub_computation, metadata={op_name="jit(_unstack)/jit(main)/split" source_file="/home/ptoulme/tpu.py" source_line=79}
}

ENTRY %main.9 (Arg_0.1: u32[3,2]) -> (u32[2], u32[2], u32[2]) {
  %Arg_0.1 = u32[3,2]{0,1:T(2,128)} parameter(0), metadata={op_name="x"}
  %slice_reduce_fusion.2 = u32[2]{0:T(128)} fusion(%Arg_0.1), kind=kLoop, calls=%fused_computation.2, metadata={op_name="jit(_unstack)/jit(main)/split" source_file="/home/ptoulme/tpu.py" source_line=79}
  %slice_reduce_fusion.1 = u32[2]{0:T(128)} fusion(%Arg_0.1), kind=kLoop, calls=%fused_computation.1, metadata={op_name="jit(_unstack)/jit(main)/split" source_file="/home/ptoulme/tpu.py" source_line=79}
  %slice_reduce_fusion = u32[2]{0:T(128)} fusion(%Arg_0.1), kind=kLoop, calls=%fused_computation, metadata={op_name="jit(_unstack)/jit(main)/split" source_file="/home/ptoulme/tpu.py" source_line=79}
  ROOT %tuple.8 = (u32[2]{0:T(128)}, u32[2]{0:T(128)}, u32[2]{0:T(128)}) tuple(%slice_reduce_fusion.2, %slice_reduce_fusion.1, %slice_reduce_fusion)
}

