#loc = loc(unknown)
module @splash_mha_fwd_e9701070 {
  func.func @main(%arg0: i32 loc(unknown), %arg1: i32 loc(unknown), %arg2: i32 loc(unknown), %arg3: memref<1x4x128xi8, #tpu.tiled<(4,128)(4,1),[1,1,1]>, #tpu.memory_space<smem>> loc(unknown), %arg4: memref<1x4x128xi8, #tpu.tiled<(4,128)(4,1),[1,1,1]>, #tpu.memory_space<smem>> loc(unknown), %arg5: memref<1x512x128xbf16, #tpu.tiled<(8,128)(2,1),[64,1,1]>, #tpu.memory_space<vmem>> loc(unknown), %arg6: memref<1x512x128xbf16, #tpu.tiled<(8,128)(2,1),[64,1,1]>, #tpu.memory_space<vmem>> loc(unknown), %arg7: memref<1x512x128xbf16, #tpu.tiled<(8,128)(2,1),[64,1,1]>, #tpu.memory_space<vmem>> loc(unknown), %arg8: memref<512x128xi32, #tpu.tiled<(8,128),[1,1]>, #tpu.memory_space<vmem>> loc(unknown), %arg9: memref<512x128xf32, #tpu.tiled<(8,128),[1,1]>, #tpu.memory_space<vmem>> loc(unknown), %arg10: memref<512x128xf32, #tpu.tiled<(8,128),[1,1]>, #tpu.memory_space<vmem>> loc(unknown), %arg11: memref<512x128xf32, #tpu.tiled<(8,128),[1,1]>, #tpu.memory_space<vmem>> loc(unknown), %arg12: memref<1x512x128xbf16, #tpu.tiled<(8,128)(2,1),[64,1,1]>, #tpu.memory_space<vmem>> loc(unknown)) attributes {dimension_semantics = [#tpu.dimension_semantics<parallel>, #tpu.dimension_semantics<arbitrary>, #tpu.dimension_semantics<arbitrary>], iteration_bounds = array<i64: 8, 4, 4>, scalar_prefetch = 2 : i64, scratch_operands = 0 : i64, window_params = [{transform_indices = @transform_0, window_bounds = array<i64: 1, 512, 128>}, {transform_indices = @transform_1, window_bounds = array<i64: 1, 512, 128>}, {transform_indices = @transform_2, window_bounds = array<i64: 1, 512, 128>}, {transform_indices = @transform_3, window_bounds = array<i64: 512, 128>}, {pipeline_mode = #tpu.pipeline_mode<synchronous>, transform_indices = @transform_4, window_bounds = array<i64: 512, 128>}, {pipeline_mode = #tpu.pipeline_mode<synchronous>, transform_indices = @transform_5, window_bounds = array<i64: 512, 128>}, {pipeline_mode = #tpu.pipeline_mode<synchronous>, transform_indices = @transform_6, window_bounds = array<i64: 512, 128>}, {transform_indices = @transform_7, window_bounds = array<i64: 1, 512, 128>}]} {
    %cst = arith.constant dense<384> : vector<8x128xi32> loc(#loc)
    %cst_0 = arith.constant dense<256> : vector<8x128xi32> loc(#loc)
    %cst_1 = arith.constant dense<128> : vector<8x128xi32> loc(#loc)
    %cst_2 = arith.constant dense<0.000000e+00> : vector<8x128x2xbf16> loc(#loc)
    %c504 = arith.constant 504 : index loc(#loc)
    %c496 = arith.constant 496 : index loc(#loc)
    %c488 = arith.constant 488 : index loc(#loc)
    %c480 = arith.constant 480 : index loc(#loc)
    %c472 = arith.constant 472 : index loc(#loc)
    %c464 = arith.constant 464 : index loc(#loc)
    %c456 = arith.constant 456 : index loc(#loc)
    %c448 = arith.constant 448 : index loc(#loc)
    %c440 = arith.constant 440 : index loc(#loc)
    %c432 = arith.constant 432 : index loc(#loc)
    %c424 = arith.constant 424 : index loc(#loc)
    %c416 = arith.constant 416 : index loc(#loc)
    %c408 = arith.constant 408 : index loc(#loc)
    %c400 = arith.constant 400 : index loc(#loc)
    %c392 = arith.constant 392 : index loc(#loc)
    %c384 = arith.constant 384 : index loc(#loc)
    %c376 = arith.constant 376 : index loc(#loc)
    %c368 = arith.constant 368 : index loc(#loc)
    %c360 = arith.constant 360 : index loc(#loc)
    %c352 = arith.constant 352 : index loc(#loc)
    %c344 = arith.constant 344 : index loc(#loc)
    %c336 = arith.constant 336 : index loc(#loc)
    %c328 = arith.constant 328 : index loc(#loc)
    %c320 = arith.constant 320 : index loc(#loc)
    %c312 = arith.constant 312 : index loc(#loc)
    %c304 = arith.constant 304 : index loc(#loc)
    %c296 = arith.constant 296 : index loc(#loc)
    %c288 = arith.constant 288 : index loc(#loc)
    %c280 = arith.constant 280 : index loc(#loc)
    %c272 = arith.constant 272 : index loc(#loc)
    %c264 = arith.constant 264 : index loc(#loc)
    %c256 = arith.constant 256 : index loc(#loc)
    %c248 = arith.constant 248 : index loc(#loc)
    %c240 = arith.constant 240 : index loc(#loc)
    %c232 = arith.constant 232 : index loc(#loc)
    %c224 = arith.constant 224 : index loc(#loc)
    %c216 = arith.constant 216 : index loc(#loc)
    %c208 = arith.constant 208 : index loc(#loc)
    %c200 = arith.constant 200 : index loc(#loc)
    %c192 = arith.constant 192 : index loc(#loc)
    %c184 = arith.constant 184 : index loc(#loc)
    %c176 = arith.constant 176 : index loc(#loc)
    %c168 = arith.constant 168 : index loc(#loc)
    %c160 = arith.constant 160 : index loc(#loc)
    %c152 = arith.constant 152 : index loc(#loc)
    %c144 = arith.constant 144 : index loc(#loc)
    %c136 = arith.constant 136 : index loc(#loc)
    %c128 = arith.constant 128 : index loc(#loc)
    %c120 = arith.constant 120 : index loc(#loc)
    %c112 = arith.constant 112 : index loc(#loc)
    %c104 = arith.constant 104 : index loc(#loc)
    %c96 = arith.constant 96 : index loc(#loc)
    %c88 = arith.constant 88 : index loc(#loc)
    %c80 = arith.constant 80 : index loc(#loc)
    %c72 = arith.constant 72 : index loc(#loc)
    %c64 = arith.constant 64 : index loc(#loc)
    %c56 = arith.constant 56 : index loc(#loc)
    %c48 = arith.constant 48 : index loc(#loc)
    %c40 = arith.constant 40 : index loc(#loc)
    %c32 = arith.constant 32 : index loc(#loc)
    %c24 = arith.constant 24 : index loc(#loc)
    %c16 = arith.constant 16 : index loc(#loc)
    %c8 = arith.constant 8 : index loc(#loc)
    %c0_i32 = arith.constant {in_layout = []} 0 : i32 loc(#loc)
    %c0 = arith.constant {in_layout = []} 0 : index loc(#loc)
    %c512_i32 = arith.constant {in_layout = []} 512 : i32 loc(#loc)
    %cst_3 = arith.constant dense<0.000000e+00> : vector<8x128xf32> loc(#loc)
    %c3_i32 = arith.constant {in_layout = []} 3 : i32 loc(#loc)
    %cst_4 = arith.constant dense<-2.38197633E+38> : vector<8x128xf32> loc(#loc)
    %cst_5 = arith.constant dense<1.000000e+00> : vector<8x128xf32> loc(#loc)
    %0 = tpu.erase_memref_layout %arg3 : memref<1x4x128xi8, #tpu.tiled<(4,128)(4,1),[1,1,1]>, #tpu.memory_space<smem>> -> memref<1x4x128xi8, #tpu.memory_space<smem>> loc(#loc)
    %1 = tpu.erase_memref_layout %arg4 : memref<1x4x128xi8, #tpu.tiled<(4,128)(4,1),[1,1,1]>, #tpu.memory_space<smem>> -> memref<1x4x128xi8, #tpu.memory_space<smem>> loc(#loc)
    %2 = tpu.reinterpret_cast %arg8 : memref<512x128xi32, #tpu.tiled<(8,128),[1,1]>, #tpu.memory_space<vmem>> -> memref<512x128xi32, #tpu.tiled<(1,128),[1,1]>, #tpu.memory_space<vmem>> loc(#loc)
    %3 = tpu.reinterpret_cast %arg9 : memref<512x128xf32, #tpu.tiled<(8,128),[1,1]>, #tpu.memory_space<vmem>> -> memref<512x128xf32, #tpu.tiled<(1,128),[1,1]>, #tpu.memory_space<vmem>> loc(#loc)
    %4 = tpu.reinterpret_cast %arg10 : memref<512x128xf32, #tpu.tiled<(8,128),[1,1]>, #tpu.memory_space<vmem>> -> memref<512x128xf32, #tpu.tiled<(1,128),[1,1]>, #tpu.memory_space<vmem>> loc(#loc)
    %5 = tpu.reinterpret_cast %arg11 : memref<512x128xf32, #tpu.tiled<(8,128),[1,1]>, #tpu.memory_space<vmem>> -> memref<512x128xf32, #tpu.tiled<(1,128),[1,1]>, #tpu.memory_space<vmem>> loc(#loc)
    %6 = arith.cmpi eq, %arg2, %c0_i32 : i32 loc(#loc179)
    scf.if %6 {
      %15 = tpu.memref_slice %5[%c0_i32, %c0_i32] : memref<512x128xf32, #tpu.tiled<(1,128),[1,1]>, #tpu.memory_space<vmem>> -> memref<512x128xf32, #tpu.tiled<(1,128),[1,1]>, #tpu.memory_space<vmem>> loc(#loc234)
      %16 = tpu.erase_memref_layout %15 : memref<512x128xf32, #tpu.tiled<(1,128),[1,1]>, #tpu.memory_space<vmem>> -> memref<512x128xf32, #tpu.memory_space<vmem>> loc(#loc234)
      tpu.store %16[%c0, %c0], %cst_3 sublanes [true, true, true, true, true, true, true, true] sublane_stride 1 : memref<512x128xf32, #tpu.memory_space<vmem>>, vector<8x128xf32>,  loc(#loc234)
      tpu.store %16[%c8, %c0], %cst_3 sublanes [true, true, true, true, true, true, true, true] sublane_stride 1 : memref<512x128xf32, #tpu.memory_space<vmem>>, vector<8x128xf32>,  loc(#loc234)
      tpu.store %16[%c16, %c0], %cst_3 sublanes [true, true, true, true, true, true, true, true] sublane_stride 1 : memref<512x128xf32, #tpu.memory_space<vmem>>, vector<8x128xf32>,  loc(#loc234)
      tpu.store %16[%c24, %c0], %cst_3 sublanes [true, true, true, true, true, true, true, true] sublane_stride 1 : memref<512x128xf32, #tpu.memory_space<vmem>>, vector<8x128xf32>,  loc(#loc234)
      tpu.store %16[%c32, %c0], %cst_3 sublanes [true, true, true, true, true, true, true, true] sublane_stride 1 : memref<512x128xf32, #tpu.memory_space<vmem>>, vector<8x128xf32>,  loc(#loc234)
      tpu.store %16[%c40, %c0], %cst_3 sublanes [true, true, true, true, true, true, true, true] sublane_stride 1 : memref<512x128xf32, #tpu.memory_space<vmem>>, vector<8x128xf32>,  loc(#loc234)
      tpu.store %16[%c48, %c0], %cst_3 sublanes [true, true, true, true, true, true, true, true] sublane_stride 1 : memref<512x128xf32, #tpu.memory_space<vmem>>, vector<8x128xf32>,  loc(#loc234)
      tpu.store %16[%c56, %c0], %cst_3 sublanes [true, true, true, true, true, true, true, true] sublane_stride 1 : memref<512x128xf32, #tpu.memory_space<vmem>>, vector<8x128xf32>,  loc(#loc234)
      tpu.store %16[%c64, %c0], %cst_3 sublanes [true, true, true, true, true, true, true, true] sublane_stride 1 : memref<512x128xf32, #tpu.memory_space<vmem>>, vector<8x128xf32>,  loc(#loc234)
      tpu.store %16[%c72, %c0], %cst_3 sublanes [true, true, true, true, true, true, true, true] sublane_stride 1 : memref<512x128xf32, #tpu.memory_space<vmem>>, vector<8x128xf32>,  loc(#loc234)
      tpu.store %16[%c80, %c0], %cst_3 sublanes [true, true, true, true, true, true, true, true] sublane_stride 1 : memref<512x128xf32, #tpu.memory_space<vmem>>, vector<8x128xf32>,  loc(#loc234)
      tpu.store %16[%c88, %c0], %cst_3 sublanes [true, true, true, true, true, true, true, true] sublane_stride 1 : memref<512x128xf32, #tpu.memory_space<vmem>>, vector<8x128xf32>,  loc(#loc234)
      tpu.store %16[%c96, %c0], %cst_3 sublanes [true, true, true, true, true, true, true, true] sublane_stride 1 : memref<512x128xf32, #tpu.memory_space<vmem>>, vector<8x128xf32>,  loc(#loc234)
      tpu.store %16[%c104, %c0], %cst_3 sublanes [true, true, true, true, true, true, true, true] sublane_stride 1 : memref<512x128xf32, #tpu.memory_space<vmem>>, vector<8x128xf32>,  loc(#loc234)
      tpu.store %16[%c112, %c0], %cst_3 sublanes [true, true, true, true, true, true, true, true] sublane_stride 1 : memref<512x128xf32, #tpu.memory_space<vmem>>, vector<8x128xf32>,  loc(#loc234)
      tpu.store %16[%c120, %c0], %cst_3 sublanes [true, true, true, true, true, true, true, true] sublane_stride 1 : memref<512x128xf32, #tpu.memory_space<vmem>>, vector<8x128xf32>,  loc(#loc234)
      tpu.store %16[%c128, %c0], %cst_3 sublanes [true, true, true, true, true, true, true, true] sublane_stride 1 : memref<512x128xf32, #tpu.memory_space<vmem>>, vector<8x128xf32>,  loc(#loc234)
      tpu.store %16[%c136, %c0], %cst_3 sublanes [true, true, true, true, true, true, true, true] sublane_stride 1 : memref<512x128xf32, #tpu.memory_space<vmem>>, vector<8x128xf32>,  loc(#loc234)
      tpu.store %16[%c144, %c0], %cst_3 sublanes [true, true, true, true, true, true, true, true] sublane_stride 1 : memref<512x128xf32, #tpu.memory_space<vmem>>, vector<8x128xf32>,  loc(#loc234)
      tpu.store %16[%c152, %c0], %cst_3 sublanes [true, true, true, true, true, true, true, true] sublane_stride 1 : memref<512x128xf32, #tpu.memory_space<vmem>>, vector<8x128xf32>,  loc(#loc234)
      tpu.store %16[%c160, %c0], %cst_3 sublanes [true, true, true, true, true, true, true, true] sublane_stride 1 : memref<512x128xf32, #tpu.memory_space<vmem>>, vector<8x128xf32>,  loc(#loc234)
      tpu.store %16[%c168, %c0], %cst_3 sublanes [true, true, true, true, true, true, true, true] sublane_stride 1 : memref<512x128xf32, #tpu.memory_space<vmem>>, vector<8x128xf32>,  loc(#loc234)
      tpu.store %16[%c176, %c0], %cst_3 sublanes [true, true, true, true, true, true, true, true] sublane_stride 1 : memref<512x128xf32, #tpu.memory_space<vmem>>, vector<8x128xf32>,  loc(#loc234)
      tpu.store %16[%c184, %c0], %cst_3 sublanes [true, true, true, true, true, true, true, true] sublane_stride 1 : memref<512x128xf32, #tpu.memory_space<vmem>>, vector<8x128xf32>,  loc(#loc234)
      tpu.store %16[%c192, %c0], %cst_3 sublanes [true, true, true, true, true, true, true, true] sublane_stride 1 : memref<512x128xf32, #tpu.memory_space<vmem>>, vector<8x128xf32>,  loc(#loc234)
      tpu.store %16[%c200, %c0], %cst_3 sublanes [true, true, true, true, true, true, true, true] sublane_stride 1 : memref<512x128xf32, #tpu.memory_space<vmem>>, vector<8x128xf32>,  loc(#loc234)
      tpu.store %16[%c208, %c0], %cst_3 sublanes [true, true, true, true, true, true, true, true] sublane_stride 1 : memref<512x128xf32, #tpu.memory_space<vmem>>, vector<8x128xf32>,  loc(#loc234)
      tpu.store %16[%c216, %c0], %cst_3 sublanes [true, true, true, true, true, true, true, true] sublane_stride 1 : memref<512x128xf32, #tpu.memory_space<vmem>>, vector<8x128xf32>,  loc(#loc234)
      tpu.store %16[%c224, %c0], %cst_3 sublanes [true, true, true, true, true, true, true, true] sublane_stride 1 : memref<512x128xf32, #tpu.memory_space<vmem>>, vector<8x128xf32>,  loc(#loc234)
      tpu.store %16[%c232, %c0], %cst_3 sublanes [true, true, true, true, true, true, true, true] sublane_stride 1 : memref<512x128xf32, #tpu.memory_space<vmem>>, vector<8x128xf32>,  loc(#loc234)
      tpu.store %16[%c240, %c0], %cst_3 sublanes [true, true, true, true, true, true, true, true] sublane_stride 1 : memref<512x128xf32, #tpu.memory_space<vmem>>, vector<8x128xf32>,  loc(#loc234)
      tpu.store %16[%c248, %c0], %cst_3 sublanes [true, true, true, true, true, true, true, true] sublane_stride 1 : memref<512x128xf32, #tpu.memory_space<vmem>>, vector<8x128xf32>,  loc(#loc234)
      tpu.store %16[%c256, %c0], %cst_3 sublanes [true, true, true, true, true, true, true, true] sublane_stride 1 : memref<512x128xf32, #tpu.memory_space<vmem>>, vector<8x128xf32>,  loc(#loc234)
      tpu.store %16[%c264, %c0], %cst_3 sublanes [true, true, true, true, true, true, true, true] sublane_stride 1 : memref<512x128xf32, #tpu.memory_space<vmem>>, vector<8x128xf32>,  loc(#loc234)
      tpu.store %16[%c272, %c0], %cst_3 sublanes [true, true, true, true, true, true, true, true] sublane_stride 1 : memref<512x128xf32, #tpu.memory_space<vmem>>, vector<8x128xf32>,  loc(#loc234)
      tpu.store %16[%c280, %c0], %cst_3 sublanes [true, true, true, true, true, true, true, true] sublane_stride 1 : memref<512x128xf32, #tpu.memory_space<vmem>>, vector<8x128xf32>,  loc(#loc234)
      tpu.store %16[%c288, %c0], %cst_3 sublanes [true, true, true, true, true, true, true, true] sublane_stride 1 : memref<512x128xf32, #tpu.memory_space<vmem>>, vector<8x128xf32>,  loc(#loc234)
      tpu.store %16[%c296, %c0], %cst_3 sublanes [true, true, true, true, true, true, true, true] sublane_stride 1 : memref<512x128xf32, #tpu.memory_space<vmem>>, vector<8x128xf32>,  loc(#loc234)
      tpu.store %16[%c304, %c0], %cst_3 sublanes [true, true, true, true, true, true, true, true] sublane_stride 1 : memref<512x128xf32, #tpu.memory_space<vmem>>, vector<8x128xf32>,  loc(#loc234)
      tpu.store %16[%c312, %c0], %cst_3 sublanes [true, true, true, true, true, true, true, true] sublane_stride 1 : memref<512x128xf32, #tpu.memory_space<vmem>>, vector<8x128xf32>,  loc(#loc234)
      tpu.store %16[%c320, %c0], %cst_3 sublanes [true, true, true, true, true, true, true, true] sublane_stride 1 : memref<512x128xf32, #tpu.memory_space<vmem>>, vector<8x128xf32>,  loc(#loc234)
      tpu.store %16[%c328, %c0], %cst_3 sublanes [true, true, true, true, true, true, true, true] sublane_stride 1 : memref<512x128xf32, #tpu.memory_space<vmem>>, vector<8x128xf32>,  loc(#loc234)
      tpu.store %16[%c336, %c0], %cst_3 sublanes [true, true, true, true, true, true, true, true] sublane_stride 1 : memref<512x128xf32, #tpu.memory_space<vmem>>, vector<8x128xf32>,  loc(#loc234)
      tpu.store %16[%c344, %c0], %cst_3 sublanes [true, true, true, true, true, true, true, true] sublane_stride 1 : memref<512x128xf32, #tpu.memory_space<vmem>>, vector<8x128xf32>,  loc(#loc234)
      tpu.store %16[%c352, %c0], %cst_3 sublanes [true, true, true, true, true, true, true, true] sublane_stride 1 : memref<512x128xf32, #tpu.memory_space<vmem>>, vector<8x128xf32>,  loc(#loc234)
      tpu.store %16[%c360, %c0], %cst_3 sublanes [true, true, true, true, true, true, true, true] sublane_stride 1 : memref<512x128xf32, #tpu.memory_space<vmem>>, vector<8x128xf32>,  loc(#loc234)
      tpu.store %16[%c368, %c0], %cst_3 sublanes [true, true, true, true, true, true, true, true] sublane_stride 1 : memref<512x128xf32, #tpu.memory_space<vmem>>, vector<8x128xf32>,  loc(#loc234)
      tpu.store %16[%c376, %c0], %cst_3 sublanes [true, true, true, true, true, true, true, true] sublane_stride 1 : memref<512x128xf32, #tpu.memory_space<vmem>>, vector<8x128xf32>,  loc(#loc234)
      tpu.store %16[%c384, %c0], %cst_3 sublanes [true, true, true, true, true, true, true, true] sublane_stride 1 : memref<512x128xf32, #tpu.memory_space<vmem>>, vector<8x128xf32>,  loc(#loc234)
      tpu.store %16[%c392, %c0], %cst_3 sublanes [true, true, true, true, true, true, true, true] sublane_stride 1 : memref<512x128xf32, #tpu.memory_space<vmem>>, vector<8x128xf32>,  loc(#loc234)
      tpu.store %16[%c400, %c0], %cst_3 sublanes [true, true, true, true, true, true, true, true] sublane_stride 1 : memref<512x128xf32, #tpu.memory_space<vmem>>, vector<8x128xf32>,  loc(#loc234)
      tpu.store %16[%c408, %c0], %cst_3 sublanes [true, true, true, true, true, true, true, true] sublane_stride 1 : memref<512x128xf32, #tpu.memory_space<vmem>>, vector<8x128xf32>,  loc(#loc234)
      tpu.store %16[%c416, %c0], %cst_3 sublanes [true, true, true, true, true, true, true, true] sublane_stride 1 : memref<512x128xf32, #tpu.memory_space<vmem>>, vector<8x128xf32>,  loc(#loc234)
      tpu.store %16[%c424, %c0], %cst_3 sublanes [true, true, true, true, true, true, true, true] sublane_stride 1 : memref<512x128xf32, #tpu.memory_space<vmem>>, vector<8x128xf32>,  loc(#loc234)
      tpu.store %16[%c432, %c0], %cst_3 sublanes [true, true, true, true, true, true, true, true] sublane_stride 1 : memref<512x128xf32, #tpu.memory_space<vmem>>, vector<8x128xf32>,  loc(#loc234)
      tpu.store %16[%c440, %c0], %cst_3 sublanes [true, true, true, true, true, true, true, true] sublane_stride 1 : memref<512x128xf32, #tpu.memory_space<vmem>>, vector<8x128xf32>,  loc(#loc234)
      tpu.store %16[%c448, %c0], %cst_3 sublanes [true, true, true, true, true, true, true, true] sublane_stride 1 : memref<512x128xf32, #tpu.memory_space<vmem>>, vector<8x128xf32>,  loc(#loc234)
      tpu.store %16[%c456, %c0], %cst_3 sublanes [true, true, true, true, true, true, true, true] sublane_stride 1 : memref<512x128xf32, #tpu.memory_space<vmem>>, vector<8x128xf32>,  loc(#loc234)
      tpu.store %16[%c464, %c0], %cst_3 sublanes [true, true, true, true, true, true, true, true] sublane_stride 1 : memref<512x128xf32, #tpu.memory_space<vmem>>, vector<8x128xf32>,  loc(#loc234)
      tpu.store %16[%c472, %c0], %cst_3 sublanes [true, true, true, true, true, true, true, true] sublane_stride 1 : memref<512x128xf32, #tpu.memory_space<vmem>>, vector<8x128xf32>,  loc(#loc234)
      tpu.store %16[%c480, %c0], %cst_3 sublanes [true, true, true, true, true, true, true, true] sublane_stride 1 : memref<512x128xf32, #tpu.memory_space<vmem>>, vector<8x128xf32>,  loc(#loc234)
      tpu.store %16[%c488, %c0], %cst_3 sublanes [true, true, true, true, true, true, true, true] sublane_stride 1 : memref<512x128xf32, #tpu.memory_space<vmem>>, vector<8x128xf32>,  loc(#loc234)
      tpu.store %16[%c496, %c0], %cst_3 sublanes [true, true, true, true, true, true, true, true] sublane_stride 1 : memref<512x128xf32, #tpu.memory_space<vmem>>, vector<8x128xf32>,  loc(#loc234)
      tpu.store %16[%c504, %c0], %cst_3 sublanes [true, true, true, true, true, true, true, true] sublane_stride 1 : memref<512x128xf32, #tpu.memory_space<vmem>>, vector<8x128xf32>,  loc(#loc234)
      %17 = tpu.memref_slice %3[%c0_i32, %c0_i32] : memref<512x128xf32, #tpu.tiled<(1,128),[1,1]>, #tpu.memory_space<vmem>> -> memref<512x128xf32, #tpu.tiled<(1,128),[1,1]>, #tpu.memory_space<vmem>> loc(#loc235)
      %18 = tpu.erase_memref_layout %17 : memref<512x128xf32, #tpu.tiled<(1,128),[1,1]>, #tpu.memory_space<vmem>> -> memref<512x128xf32, #tpu.memory_space<vmem>> loc(#loc235)
      tpu.store %18[%c0, %c0], %cst_4 sublanes [true, true, true, true, true, true, true, true] sublane_stride 1 : memref<512x128xf32, #tpu.memory_space<vmem>>, vector<8x128xf32>,  loc(#loc235)
      tpu.store %18[%c8, %c0], %cst_4 sublanes [true, true, true, true, true, true, true, true] sublane_stride 1 : memref<512x128xf32, #tpu.memory_space<vmem>>, vector<8x128xf32>,  loc(#loc235)
      tpu.store %18[%c16, %c0], %cst_4 sublanes [true, true, true, true, true, true, true, true] sublane_stride 1 : memref<512x128xf32, #tpu.memory_space<vmem>>, vector<8x128xf32>,  loc(#loc235)
      tpu.store %18[%c24, %c0], %cst_4 sublanes [true, true, true, true, true, true, true, true] sublane_stride 1 : memref<512x128xf32, #tpu.memory_space<vmem>>, vector<8x128xf32>,  loc(#loc235)
      tpu.store %18[%c32, %c0], %cst_4 sublanes [true, true, true, true, true, true, true, true] sublane_stride 1 : memref<512x128xf32, #tpu.memory_space<vmem>>, vector<8x128xf32>,  loc(#loc235)
      tpu.store %18[%c40, %c0], %cst_4 sublanes [true, true, true, true, true, true, true, true] sublane_stride 1 : memref<512x128xf32, #tpu.memory_space<vmem>>, vector<8x128xf32>,  loc(#loc235)
      tpu.store %18[%c48, %c0], %cst_4 sublanes [true, true, true, true, true, true, true, true] sublane_stride 1 : memref<512x128xf32, #tpu.memory_space<vmem>>, vector<8x128xf32>,  loc(#loc235)
      tpu.store %18[%c56, %c0], %cst_4 sublanes [true, true, true, true, true, true, true, true] sublane_stride 1 : memref<512x128xf32, #tpu.memory_space<vmem>>, vector<8x128xf32>,  loc(#loc235)
      tpu.store %18[%c64, %c0], %cst_4 sublanes [true, true, true, true, true, true, true, true] sublane_stride 1 : memref<512x128xf32, #tpu.memory_space<vmem>>, vector<8x128xf32>,  loc(#loc235)
      tpu.store %18[%c72, %c0], %cst_4 sublanes [true, true, true, true, true, true, true, true] sublane_stride 1 : memref<512x128xf32, #tpu.memory_space<vmem>>, vector<8x128xf32>,  loc(#loc235)
      tpu.store %18[%c80, %c0], %cst_4 sublanes [true, true, true, true, true, true, true, true] sublane_stride 1 : memref<512x128xf32, #tpu.memory_space<vmem>>, vector<8x128xf32>,  loc(#loc235)
      tpu.store %18[%c88, %c0], %cst_4 sublanes [true, true, true, true, true, true, true, true] sublane_stride 1 : memref<512x128xf32, #tpu.memory_space<vmem>>, vector<8x128xf32>,  loc(#loc235)
      tpu.store %18[%c96, %c0], %cst_4 sublanes [true, true, true, true, true, true, true, true] sublane_stride 1 : memref<512x128xf32, #tpu.memory_space<vmem>>, vector<8x128xf32>,  loc(#loc235)
      tpu.store %18[%c104, %c0], %cst_4 sublanes [true, true, true, true, true, true, true, true] sublane_stride 1 : memref<512x128xf32, #tpu.memory_space<vmem>>, vector<8x128xf32>,  loc(#loc235)
      tpu.store %18[%c112, %c0], %cst_4 sublanes [true, true, true, true, true, true, true, true] sublane_stride 1 : memref<512x128xf32, #tpu.memory_space<vmem>>, vector<8x128xf32>,  loc(#loc235)
      tpu.store %18[%c120, %c0], %cst_4 sublanes [true, true, true, true, true, true, true, true] sublane_stride 1 : memref<512x128xf32, #tpu.memory_space<vmem>>, vector<8x128xf32>,  loc(#loc235)
      tpu.store %18[%c128, %c0], %cst_4 sublanes [true, true, true, true, true, true, true, true] sublane_stride 1 : memref<512x128xf32, #tpu.memory_space<vmem>>, vector<8x128xf32>,  loc(#loc235)
      tpu.store %18[%c136, %c0], %cst_4 sublanes [true, true, true, true, true, true, true, true] sublane_stride 1 : memref<512x128xf32, #tpu.memory_space<vmem>>, vector<8x128xf32>,  loc(#loc235)
      tpu.store %18[%c144, %c0], %cst_4 sublanes [true, true, true, true, true, true, true, true] sublane_stride 1 : memref<512x128xf32, #tpu.memory_space<vmem>>, vector<8x128xf32>,  loc(#loc235)
      tpu.store %18[%c152, %c0], %cst_4 sublanes [true, true, true, true, true, true, true, true] sublane_stride 1 : memref<512x128xf32, #tpu.memory_space<vmem>>, vector<8x128xf32>,  loc(#loc235)
      tpu.store %18[%c160, %c0], %cst_4 sublanes [true, true, true, true, true, true, true, true] sublane_stride 1 : memref<512x128xf32, #tpu.memory_space<vmem>>, vector<8x128xf32>,  loc(#loc235)
      tpu.store %18[%c168, %c0], %cst_4 sublanes [true, true, true, true, true, true, true, true] sublane_stride 1 : memref<512x128xf32, #tpu.memory_space<vmem>>, vector<8x128xf32>,  loc(#loc235)
      tpu.store %18[%c176, %c0], %cst_4 sublanes [true, true, true, true, true, true, true, true] sublane_stride 1 : memref<512x128xf32, #tpu.memory_space<vmem>>, vector<8x128xf32>,  loc(#loc235)
      tpu.store %18[%c184, %c0], %cst_4 sublanes [true, true, true, true, true, true, true, true] sublane_stride 1 : memref<512x128xf32, #tpu.memory_space<vmem>>, vector<8x128xf32>,  loc(#loc235)
      tpu.store %18[%c192, %c0], %cst_4 sublanes [true, true, true, true, true, true, true, true] sublane_stride 1 : memref<512x128xf32, #tpu.memory_space<vmem>>, vector<8x128xf32>,  loc(#loc235)
      tpu.store %18[%c200, %c0], %cst_4 sublanes [true, true, true, true, true, true, true, true] sublane_stride 1 : memref<512x128xf32, #tpu.memory_space<vmem>>, vector<8x128xf32>,  loc(#loc235)
      tpu.store %18[%c208, %c0], %cst_4 sublanes [true, true, true, true, true, true, true, true] sublane_stride 1 : memref<512x128xf32, #tpu.memory_space<vmem>>, vector<8x128xf32>,  loc(#loc235)
      tpu.store %18[%c216, %c0], %cst_4 sublanes [true, true, true, true, true, true, true, true] sublane_stride 1 : memref<512x128xf32, #tpu.memory_space<vmem>>, vector<8x128xf32>,  loc(#loc235)
      tpu.store %18[%c224, %c0], %cst_4 sublanes [true, true, true, true, true, true, true, true] sublane_stride 1 : memref<512x128xf32, #tpu.memory_space<vmem>>, vector<8x128xf32>,  loc(#loc235)
      tpu.store %18[%c232, %c0], %cst_4 sublanes [true, true, true, true, true, true, true, true] sublane_stride 1 : memref<512x128xf32, #tpu.memory_space<vmem>>, vector<8x128xf32>,  loc(#loc235)
      tpu.store %18[%c240, %c0], %cst_4 sublanes [true, true, true, true, true, true, true, true] sublane_stride 1 : memref<512x128xf32, #tpu.memory_space<vmem>>, vector<8x128xf32>,  loc(#loc235)
      tpu.store %18[%c248, %c0], %cst_4 sublanes [true, true, true, true, true, true, true, true] sublane_stride 1 : memref<512x128xf32, #tpu.memory_space<vmem>>, vector<8x128xf32>,  loc(#loc235)
      tpu.store %18[%c256, %c0], %cst_4 sublanes [true, true, true, true, true, true, true, true] sublane_stride 1 : memref<512x128xf32, #tpu.memory_space<vmem>>, vector<8x128xf32>,  loc(#loc235)
      tpu.store %18[%c264, %c0], %cst_4 sublanes [true, true, true, true, true, true, true, true] sublane_stride 1 : memref<512x128xf32, #tpu.memory_space<vmem>>, vector<8x128xf32>,  loc(#loc235)
      tpu.store %18[%c272, %c0], %cst_4 sublanes [true, true, true, true, true, true, true, true] sublane_stride 1 : memref<512x128xf32, #tpu.memory_space<vmem>>, vector<8x128xf32>,  loc(#loc235)
      tpu.store %18[%c280, %c0], %cst_4 sublanes [true, true, true, true, true, true, true, true] sublane_stride 1 : memref<512x128xf32, #tpu.memory_space<vmem>>, vector<8x128xf32>,  loc(#loc235)
      tpu.store %18[%c288, %c0], %cst_4 sublanes [true, true, true, true, true, true, true, true] sublane_stride 1 : memref<512x128xf32, #tpu.memory_space<vmem>>, vector<8x128xf32>,  loc(#loc235)
      tpu.store %18[%c296, %c0], %cst_4 sublanes [true, true, true, true, true, true, true, true] sublane_stride 1 : memref<512x128xf32, #tpu.memory_space<vmem>>, vector<8x128xf32>,  loc(#loc235)
      tpu.store %18[%c304, %c0], %cst_4 sublanes [true, true, true, true, true, true, true, true] sublane_stride 1 : memref<512x128xf32, #tpu.memory_space<vmem>>, vector<8x128xf32>,  loc(#loc235)
      tpu.store %18[%c312, %c0], %cst_4 sublanes [true, true, true, true, true, true, true, true] sublane_stride 1 : memref<512x128xf32, #tpu.memory_space<vmem>>, vector<8x128xf32>,  loc(#loc235)
      tpu.store %18[%c320, %c0], %cst_4 sublanes [true, true, true, true, true, true, true, true] sublane_stride 1 : memref<512x128xf32, #tpu.memory_space<vmem>>, vector<8x128xf32>,  loc(#loc235)
      tpu.store %18[%c328, %c0], %cst_4 sublanes [true, true, true, true, true, true, true, true] sublane_stride 1 : memref<512x128xf32, #tpu.memory_space<vmem>>, vector<8x128xf32>,  loc(#loc235)
      tpu.store %18[%c336, %c0], %cst_4 sublanes [true, true, true, true, true, true, true, true] sublane_stride 1 : memref<512x128xf32, #tpu.memory_space<vmem>>, vector<8x128xf32>,  loc(#loc235)
      tpu.store %18[%c344, %c0], %cst_4 sublanes [true, true, true, true, true, true, true, true] sublane_stride 1 : memref<512x128xf32, #tpu.memory_space<vmem>>, vector<8x128xf32>,  loc(#loc235)
      tpu.store %18[%c352, %c0], %cst_4 sublanes [true, true, true, true, true, true, true, true] sublane_stride 1 : memref<512x128xf32, #tpu.memory_space<vmem>>, vector<8x128xf32>,  loc(#loc235)
      tpu.store %18[%c360, %c0], %cst_4 sublanes [true, true, true, true, true, true, true, true] sublane_stride 1 : memref<512x128xf32, #tpu.memory_space<vmem>>, vector<8x128xf32>,  loc(#loc235)
      tpu.store %18[%c368, %c0], %cst_4 sublanes [true, true, true, true, true, true, true, true] sublane_stride 1 : memref<512x128xf32, #tpu.memory_space<vmem>>, vector<8x128xf32>,  loc(#loc235)
      tpu.store %18[%c376, %c0], %cst_4 sublanes [true, true, true, true, true, true, true, true] sublane_stride 1 : memref<512x128xf32, #tpu.memory_space<vmem>>, vector<8x128xf32>,  loc(#loc235)
      tpu.store %18[%c384, %c0], %cst_4 sublanes [true, true, true, true, true, true, true, true] sublane_stride 1 : memref<512x128xf32, #tpu.memory_space<vmem>>, vector<8x128xf32>,  loc(#loc235)
      tpu.store %18[%c392, %c0], %cst_4 sublanes [true, true, true, true, true, true, true, true] sublane_stride 1 : memref<512x128xf32, #tpu.memory_space<vmem>>, vector<8x128xf32>,  loc(#loc235)
      tpu.store %18[%c400, %c0], %cst_4 sublanes [true, true, true, true, true, true, true, true] sublane_stride 1 : memref<512x128xf32, #tpu.memory_space<vmem>>, vector<8x128xf32>,  loc(#loc235)
      tpu.store %18[%c408, %c0], %cst_4 sublanes [true, true, true, true, true, true, true, true] sublane_stride 1 : memref<512x128xf32, #tpu.memory_space<vmem>>, vector<8x128xf32>,  loc(#loc235)
      tpu.store %18[%c416, %c0], %cst_4 sublanes [true, true, true, true, true, true, true, true] sublane_stride 1 : memref<512x128xf32, #tpu.memory_space<vmem>>, vector<8x128xf32>,  loc(#loc235)
      tpu.store %18[%c424, %c0], %cst_4 sublanes [true, true, true, true, true, true, true, true] sublane_stride 1 : memref<512x128xf32, #tpu.memory_space<vmem>>, vector<8x128xf32>,  loc(#loc235)
      tpu.store %18[%c432, %c0], %cst_4 sublanes [true, true, true, true, true, true, true, true] sublane_stride 1 : memref<512x128xf32, #tpu.memory_space<vmem>>, vector<8x128xf32>,  loc(#loc235)
      tpu.store %18[%c440, %c0], %cst_4 sublanes [true, true, true, true, true, true, true, true] sublane_stride 1 : memref<512x128xf32, #tpu.memory_space<vmem>>, vector<8x128xf32>,  loc(#loc235)
      tpu.store %18[%c448, %c0], %cst_4 sublanes [true, true, true, true, true, true, true, true] sublane_stride 1 : memref<512x128xf32, #tpu.memory_space<vmem>>, vector<8x128xf32>,  loc(#loc235)
      tpu.store %18[%c456, %c0], %cst_4 sublanes [true, true, true, true, true, true, true, true] sublane_stride 1 : memref<512x128xf32, #tpu.memory_space<vmem>>, vector<8x128xf32>,  loc(#loc235)
      tpu.store %18[%c464, %c0], %cst_4 sublanes [true, true, true, true, true, true, true, true] sublane_stride 1 : memref<512x128xf32, #tpu.memory_space<vmem>>, vector<8x128xf32>,  loc(#loc235)
      tpu.store %18[%c472, %c0], %cst_4 sublanes [true, true, true, true, true, true, true, true] sublane_stride 1 : memref<512x128xf32, #tpu.memory_space<vmem>>, vector<8x128xf32>,  loc(#loc235)
      tpu.store %18[%c480, %c0], %cst_4 sublanes [true, true, true, true, true, true, true, true] sublane_stride 1 : memref<512x128xf32, #tpu.memory_space<vmem>>, vector<8x128xf32>,  loc(#loc235)
      tpu.store %18[%c488, %c0], %cst_4 sublanes [true, true, true, true, true, true, true, true] sublane_stride 1 : memref<512x128xf32, #tpu.memory_space<vmem>>, vector<8x128xf32>,  loc(#loc235)
      tpu.store %18[%c496, %c0], %cst_4 sublanes [true, true, true, true, true, true, true, true] sublane_stride 1 : memref<512x128xf32, #tpu.memory_space<vmem>>, vector<8x128xf32>,  loc(#loc235)
      tpu.store %18[%c504, %c0], %cst_4 sublanes [true, true, true, true, true, true, true, true] sublane_stride 1 : memref<512x128xf32, #tpu.memory_space<vmem>>, vector<8x128xf32>,  loc(#loc235)
      %19 = tpu.memref_slice %4[%c0_i32, %c0_i32] : memref<512x128xf32, #tpu.tiled<(1,128),[1,1]>, #tpu.memory_space<vmem>> -> memref<512x128xf32, #tpu.tiled<(1,128),[1,1]>, #tpu.memory_space<vmem>> loc(#loc236)
      %20 = tpu.erase_memref_layout %19 : memref<512x128xf32, #tpu.tiled<(1,128),[1,1]>, #tpu.memory_space<vmem>> -> memref<512x128xf32, #tpu.memory_space<vmem>> loc(#loc236)
      tpu.store %20[%c0, %c0], %cst_3 sublanes [true, true, true, true, true, true, true, true] sublane_stride 1 : memref<512x128xf32, #tpu.memory_space<vmem>>, vector<8x128xf32>,  loc(#loc236)
      tpu.store %20[%c8, %c0], %cst_3 sublanes [true, true, true, true, true, true, true, true] sublane_stride 1 : memref<512x128xf32, #tpu.memory_space<vmem>>, vector<8x128xf32>,  loc(#loc236)
      tpu.store %20[%c16, %c0], %cst_3 sublanes [true, true, true, true, true, true, true, true] sublane_stride 1 : memref<512x128xf32, #tpu.memory_space<vmem>>, vector<8x128xf32>,  loc(#loc236)
      tpu.store %20[%c24, %c0], %cst_3 sublanes [true, true, true, true, true, true, true, true] sublane_stride 1 : memref<512x128xf32, #tpu.memory_space<vmem>>, vector<8x128xf32>,  loc(#loc236)
      tpu.store %20[%c32, %c0], %cst_3 sublanes [true, true, true, true, true, true, true, true] sublane_stride 1 : memref<512x128xf32, #tpu.memory_space<vmem>>, vector<8x128xf32>,  loc(#loc236)
      tpu.store %20[%c40, %c0], %cst_3 sublanes [true, true, true, true, true, true, true, true] sublane_stride 1 : memref<512x128xf32, #tpu.memory_space<vmem>>, vector<8x128xf32>,  loc(#loc236)
      tpu.store %20[%c48, %c0], %cst_3 sublanes [true, true, true, true, true, true, true, true] sublane_stride 1 : memref<512x128xf32, #tpu.memory_space<vmem>>, vector<8x128xf32>,  loc(#loc236)
      tpu.store %20[%c56, %c0], %cst_3 sublanes [true, true, true, true, true, true, true, true] sublane_stride 1 : memref<512x128xf32, #tpu.memory_space<vmem>>, vector<8x128xf32>,  loc(#loc236)
      tpu.store %20[%c64, %c0], %cst_3 sublanes [true, true, true, true, true, true, true, true] sublane_stride 1 : memref<512x128xf32, #tpu.memory_space<vmem>>, vector<8x128xf32>,  loc(#loc236)
      tpu.store %20[%c72, %c0], %cst_3 sublanes [true, true, true, true, true, true, true, true] sublane_stride 1 : memref<512x128xf32, #tpu.memory_space<vmem>>, vector<8x128xf32>,  loc(#loc236)
      tpu.store %20[%c80, %c0], %cst_3 sublanes [true, true, true, true, true, true, true, true] sublane_stride 1 : memref<512x128xf32, #tpu.memory_space<vmem>>, vector<8x128xf32>,  loc(#loc236)
      tpu.store %20[%c88, %c0], %cst_3 sublanes [true, true, true, true, true, true, true, true] sublane_stride 1 : memref<512x128xf32, #tpu.memory_space<vmem>>, vector<8x128xf32>,  loc(#loc236)
      tpu.store %20[%c96, %c0], %cst_3 sublanes [true, true, true, true, true, true, true, true] sublane_stride 1 : memref<512x128xf32, #tpu.memory_space<vmem>>, vector<8x128xf32>,  loc(#loc236)
      tpu.store %20[%c104, %c0], %cst_3 sublanes [true, true, true, true, true, true, true, true] sublane_stride 1 : memref<512x128xf32, #tpu.memory_space<vmem>>, vector<8x128xf32>,  loc(#loc236)
      tpu.store %20[%c112, %c0], %cst_3 sublanes [true, true, true, true, true, true, true, true] sublane_stride 1 : memref<512x128xf32, #tpu.memory_space<vmem>>, vector<8x128xf32>,  loc(#loc236)
      tpu.store %20[%c120, %c0], %cst_3 sublanes [true, true, true, true, true, true, true, true] sublane_stride 1 : memref<512x128xf32, #tpu.memory_space<vmem>>, vector<8x128xf32>,  loc(#loc236)
      tpu.store %20[%c128, %c0], %cst_3 sublanes [true, true, true, true, true, true, true, true] sublane_stride 1 : memref<512x128xf32, #tpu.memory_space<vmem>>, vector<8x128xf32>,  loc(#loc236)
      tpu.store %20[%c136, %c0], %cst_3 sublanes [true, true, true, true, true, true, true, true] sublane_stride 1 : memref<512x128xf32, #tpu.memory_space<vmem>>, vector<8x128xf32>,  loc(#loc236)
      tpu.store %20[%c144, %c0], %cst_3 sublanes [true, true, true, true, true, true, true, true] sublane_stride 1 : memref<512x128xf32, #tpu.memory_space<vmem>>, vector<8x128xf32>,  loc(#loc236)
      tpu.store %20[%c152, %c0], %cst_3 sublanes [true, true, true, true, true, true, true, true] sublane_stride 1 : memref<512x128xf32, #tpu.memory_space<vmem>>, vector<8x128xf32>,  loc(#loc236)
      tpu.store %20[%c160, %c0], %cst_3 sublanes [true, true, true, true, true, true, true, true] sublane_stride 1 : memref<512x128xf32, #tpu.memory_space<vmem>>, vector<8x128xf32>,  loc(#loc236)
      tpu.store %20[%c168, %c0], %cst_3 sublanes [true, true, true, true, true, true, true, true] sublane_stride 1 : memref<512x128xf32, #tpu.memory_space<vmem>>, vector<8x128xf32>,  loc(#loc236)
      tpu.store %20[%c176, %c0], %cst_3 sublanes [true, true, true, true, true, true, true, true] sublane_stride 1 : memref<512x128xf32, #tpu.memory_space<vmem>>, vector<8x128xf32>,  loc(#loc236)
      tpu.store %20[%c184, %c0], %cst_3 sublanes [true, true, true, true, true, true, true, true] sublane_stride 1 : memref<512x128xf32, #tpu.memory_space<vmem>>, vector<8x128xf32>,  loc(#loc236)
      tpu.store %20[%c192, %c0], %cst_3 sublanes [true, true, true, true, true, true, true, true] sublane_stride 1 : memref<512x128xf32, #tpu.memory_space<vmem>>, vector<8x128xf32>,  loc(#loc236)
      tpu.store %20[%c200, %c0], %cst_3 sublanes [true, true, true, true, true, true, true, true] sublane_stride 1 : memref<512x128xf32, #tpu.memory_space<vmem>>, vector<8x128xf32>,  loc(#loc236)
      tpu.store %20[%c208, %c0], %cst_3 sublanes [true, true, true, true, true, true, true, true] sublane_stride 1 : memref<512x128xf32, #tpu.memory_space<vmem>>, vector<8x128xf32>,  loc(#loc236)
      tpu.store %20[%c216, %c0], %cst_3 sublanes [true, true, true, true, true, true, true, true] sublane_stride 1 : memref<512x128xf32, #tpu.memory_space<vmem>>, vector<8x128xf32>,  loc(#loc236)
      tpu.store %20[%c224, %c0], %cst_3 sublanes [true, true, true, true, true, true, true, true] sublane_stride 1 : memref<512x128xf32, #tpu.memory_space<vmem>>, vector<8x128xf32>,  loc(#loc236)
      tpu.store %20[%c232, %c0], %cst_3 sublanes [true, true, true, true, true, true, true, true] sublane_stride 1 : memref<512x128xf32, #tpu.memory_space<vmem>>, vector<8x128xf32>,  loc(#loc236)
      tpu.store %20[%c240, %c0], %cst_3 sublanes [true, true, true, true, true, true, true, true] sublane_stride 1 : memref<512x128xf32, #tpu.memory_space<vmem>>, vector<8x128xf32>,  loc(#loc236)
      tpu.store %20[%c248, %c0], %cst_3 sublanes [true, true, true, true, true, true, true, true] sublane_stride 1 : memref<512x128xf32, #tpu.memory_space<vmem>>, vector<8x128xf32>,  loc(#loc236)
      tpu.store %20[%c256, %c0], %cst_3 sublanes [true, true, true, true, true, true, true, true] sublane_stride 1 : memref<512x128xf32, #tpu.memory_space<vmem>>, vector<8x128xf32>,  loc(#loc236)
      tpu.store %20[%c264, %c0], %cst_3 sublanes [true, true, true, true, true, true, true, true] sublane_stride 1 : memref<512x128xf32, #tpu.memory_space<vmem>>, vector<8x128xf32>,  loc(#loc236)
      tpu.store %20[%c272, %c0], %cst_3 sublanes [true, true, true, true, true, true, true, true] sublane_stride 1 : memref<512x128xf32, #tpu.memory_space<vmem>>, vector<8x128xf32>,  loc(#loc236)
      tpu.store %20[%c280, %c0], %cst_3 sublanes [true, true, true, true, true, true, true, true] sublane_stride 1 : memref<512x128xf32, #tpu.memory_space<vmem>>, vector<8x128xf32>,  loc(#loc236)
      tpu.store %20[%c288, %c0], %cst_3 sublanes [true, true, true, true, true, true, true, true] sublane_stride 1 : memref<512x128xf32, #tpu.memory_space<vmem>>, vector<8x128xf32>,  loc(#loc236)
      tpu.store %20[%c296, %c0], %cst_3 sublanes [true, true, true, true, true, true, true, true] sublane_stride 1 : memref<512x128xf32, #tpu.memory_space<vmem>>, vector<8x128xf32>,  loc(#loc236)
      tpu.store %20[%c304, %c0], %cst_3 sublanes [true, true, true, true, true, true, true, true] sublane_stride 1 : memref<512x128xf32, #tpu.memory_space<vmem>>, vector<8x128xf32>,  loc(#loc236)
      tpu.store %20[%c312, %c0], %cst_3 sublanes [true, true, true, true, true, true, true, true] sublane_stride 1 : memref<512x128xf32, #tpu.memory_space<vmem>>, vector<8x128xf32>,  loc(#loc236)
      tpu.store %20[%c320, %c0], %cst_3 sublanes [true, true, true, true, true, true, true, true] sublane_stride 1 : memref<512x128xf32, #tpu.memory_space<vmem>>, vector<8x128xf32>,  loc(#loc236)
      tpu.store %20[%c328, %c0], %cst_3 sublanes [true, true, true, true, true, true, true, true] sublane_stride 1 : memref<512x128xf32, #tpu.memory_space<vmem>>, vector<8x128xf32>,  loc(#loc236)
      tpu.store %20[%c336, %c0], %cst_3 sublanes [true, true, true, true, true, true, true, true] sublane_stride 1 : memref<512x128xf32, #tpu.memory_space<vmem>>, vector<8x128xf32>,  loc(#loc236)
      tpu.store %20[%c344, %c0], %cst_3 sublanes [true, true, true, true, true, true, true, true] sublane_stride 1 : memref<512x128xf32, #tpu.memory_space<vmem>>, vector<8x128xf32>,  loc(#loc236)
      tpu.store %20[%c352, %c0], %cst_3 sublanes [true, true, true, true, true, true, true, true] sublane_stride 1 : memref<512x128xf32, #tpu.memory_space<vmem>>, vector<8x128xf32>,  loc(#loc236)
      tpu.store %20[%c360, %c0], %cst_3 sublanes [true, true, true, true, true, true, true, true] sublane_stride 1 : memref<512x128xf32, #tpu.memory_space<vmem>>, vector<8x128xf32>,  loc(#loc236)
      tpu.store %20[%c368, %c0], %cst_3 sublanes [true, true, true, true, true, true, true, true] sublane_stride 1 : memref<512x128xf32, #tpu.memory_space<vmem>>, vector<8x128xf32>,  loc(#loc236)
      tpu.store %20[%c376, %c0], %cst_3 sublanes [true, true, true, true, true, true, true, true] sublane_stride 1 : memref<512x128xf32, #tpu.memory_space<vmem>>, vector<8x128xf32>,  loc(#loc236)
      tpu.store %20[%c384, %c0], %cst_3 sublanes [true, true, true, true, true, true, true, true] sublane_stride 1 : memref<512x128xf32, #tpu.memory_space<vmem>>, vector<8x128xf32>,  loc(#loc236)
      tpu.store %20[%c392, %c0], %cst_3 sublanes [true, true, true, true, true, true, true, true] sublane_stride 1 : memref<512x128xf32, #tpu.memory_space<vmem>>, vector<8x128xf32>,  loc(#loc236)
      tpu.store %20[%c400, %c0], %cst_3 sublanes [true, true, true, true, true, true, true, true] sublane_stride 1 : memref<512x128xf32, #tpu.memory_space<vmem>>, vector<8x128xf32>,  loc(#loc236)
      tpu.store %20[%c408, %c0], %cst_3 sublanes [true, true, true, true, true, true, true, true] sublane_stride 1 : memref<512x128xf32, #tpu.memory_space<vmem>>, vector<8x128xf32>,  loc(#loc236)
      tpu.store %20[%c416, %c0], %cst_3 sublanes [true, true, true, true, true, true, true, true] sublane_stride 1 : memref<512x128xf32, #tpu.memory_space<vmem>>, vector<8x128xf32>,  loc(#loc236)
      tpu.store %20[%c424, %c0], %cst_3 sublanes [true, true, true, true, true, true, true, true] sublane_stride 1 : memref<512x128xf32, #tpu.memory_space<vmem>>, vector<8x128xf32>,  loc(#loc236)
      tpu.store %20[%c432, %c0], %cst_3 sublanes [true, true, true, true, true, true, true, true] sublane_stride 1 : memref<512x128xf32, #tpu.memory_space<vmem>>, vector<8x128xf32>,  loc(#loc236)
      tpu.store %20[%c440, %c0], %cst_3 sublanes [true, true, true, true, true, true, true, true] sublane_stride 1 : memref<512x128xf32, #tpu.memory_space<vmem>>, vector<8x128xf32>,  loc(#loc236)
      tpu.store %20[%c448, %c0], %cst_3 sublanes [true, true, true, true, true, true, true, true] sublane_stride 1 : memref<512x128xf32, #tpu.memory_space<vmem>>, vector<8x128xf32>,  loc(#loc236)
      tpu.store %20[%c456, %c0], %cst_3 sublanes [true, true, true, true, true, true, true, true] sublane_stride 1 : memref<512x128xf32, #tpu.memory_space<vmem>>, vector<8x128xf32>,  loc(#loc236)
      tpu.store %20[%c464, %c0], %cst_3 sublanes [true, true, true, true, true, true, true, true] sublane_stride 1 : memref<512x128xf32, #tpu.memory_space<vmem>>, vector<8x128xf32>,  loc(#loc236)
      tpu.store %20[%c472, %c0], %cst_3 sublanes [true, true, true, true, true, true, true, true] sublane_stride 1 : memref<512x128xf32, #tpu.memory_space<vmem>>, vector<8x128xf32>,  loc(#loc236)
      tpu.store %20[%c480, %c0], %cst_3 sublanes [true, true, true, true, true, true, true, true] sublane_stride 1 : memref<512x128xf32, #tpu.memory_space<vmem>>, vector<8x128xf32>,  loc(#loc236)
      tpu.store %20[%c488, %c0], %cst_3 sublanes [true, true, true, true, true, true, true, true] sublane_stride 1 : memref<512x128xf32, #tpu.memory_space<vmem>>, vector<8x128xf32>,  loc(#loc236)
      tpu.store %20[%c496, %c0], %cst_3 sublanes [true, true, true, true, true, true, true, true] sublane_stride 1 : memref<512x128xf32, #tpu.memory_space<vmem>>, vector<8x128xf32>,  loc(#loc236)
      tpu.store %20[%c504, %c0], %cst_3 sublanes [true, true, true, true, true, true, true, true] sublane_stride 1 : memref<512x128xf32, #tpu.memory_space<vmem>>, vector<8x128xf32>,  loc(#loc236)
    } {in_layout = [#tpu.vpad<"none">]} loc(#loc180)
    %7 = arith.index_cast %arg1 : i32 to index loc(#loc237)
    %8 = arith.index_cast %arg2 : i32 to index loc(#loc237)
    %9 = memref.load %1[%c0, %7, %8] : memref<1x4x128xi8, #tpu.memory_space<smem>> loc(#loc237)
    %10 = arith.extsi %9 : i8 to i32 loc(#loc238)
    %11 = arith.cmpi sgt, %10, %c0_i32 : i32 loc(#loc239)
    %12 = memref.load %0[%c0, %7, %8] : memref<1x4x128xi8, #tpu.memory_space<smem>> loc(#loc240)
    %13 = arith.extsi %12 : i8 to i32 loc(#loc241)
    scf.if %11 {
      %15 = tpu.memref_slice %3[%c0_i32, %c0_i32] : memref<512x128xf32, #tpu.tiled<(1,128),[1,1]>, #tpu.memory_space<vmem>> -> memref<512x128xf32, #tpu.tiled<(1,128),[1,1]>, #tpu.memory_space<vmem>> loc(#loc242)
      %16 = tpu.erase_memref_layout %15 : memref<512x128xf32, #tpu.tiled<(1,128),[1,1]>, #tpu.memory_space<vmem>> -> memref<512x128xf32, #tpu.memory_space<vmem>> loc(#loc242)
      %17 = tpu.load %16[%c0, %c0] sublanes [true, true, true, true, true, true, true, true] sublane_stride 1 : memref<512x128xf32, #tpu.memory_space<vmem>>, vector<8x128xf32> loc(#loc242)
      %18 = tpu.load %16[%c8, %c0] sublanes [true, true, true, true, true, true, true, true] sublane_stride 1 : memref<512x128xf32, #tpu.memory_space<vmem>>, vector<8x128xf32> loc(#loc242)
      %19 = tpu.load %16[%c16, %c0] sublanes [true, true, true, true, true, true, true, true] sublane_stride 1 : memref<512x128xf32, #tpu.memory_space<vmem>>, vector<8x128xf32> loc(#loc242)
      %20 = tpu.load %16[%c24, %c0] sublanes [true, true, true, true, true, true, true, true] sublane_stride 1 : memref<512x128xf32, #tpu.memory_space<vmem>>, vector<8x128xf32> loc(#loc242)
      %21 = tpu.load %16[%c32, %c0] sublanes [true, true, true, true, true, true, true, true] sublane_stride 1 : memref<512x128xf32, #tpu.memory_space<vmem>>, vector<8x128xf32> loc(#loc242)
      %22 = tpu.load %16[%c40, %c0] sublanes [true, true, true, true, true, true, true, true] sublane_stride 1 : memref<512x128xf32, #tpu.memory_space<vmem>>, vector<8x128xf32> loc(#loc242)
      %23 = tpu.load %16[%c48, %c0] sublanes [true, true, true, true, true, true, true, true] sublane_stride 1 : memref<512x128xf32, #tpu.memory_space<vmem>>, vector<8x128xf32> loc(#loc242)
      %24 = tpu.load %16[%c56, %c0] sublanes [true, true, true, true, true, true, true, true] sublane_stride 1 : memref<512x128xf32, #tpu.memory_space<vmem>>, vector<8x128xf32> loc(#loc242)
      %25 = tpu.load %16[%c64, %c0] sublanes [true, true, true, true, true, true, true, true] sublane_stride 1 : memref<512x128xf32, #tpu.memory_space<vmem>>, vector<8x128xf32> loc(#loc242)
      %26 = tpu.load %16[%c72, %c0] sublanes [true, true, true, true, true, true, true, true] sublane_stride 1 : memref<512x128xf32, #tpu.memory_space<vmem>>, vector<8x128xf32> loc(#loc242)
      %27 = tpu.load %16[%c80, %c0] sublanes [true, true, true, true, true, true, true, true] sublane_stride 1 : memref<512x128xf32, #tpu.memory_space<vmem>>, vector<8x128xf32> loc(#loc242)
      %28 = tpu.load %16[%c88, %c0] sublanes [true, true, true, true, true, true, true, true] sublane_stride 1 : memref<512x128xf32, #tpu.memory_space<vmem>>, vector<8x128xf32> loc(#loc242)
      %29 = tpu.load %16[%c96, %c0] sublanes [true, true, true, true, true, true, true, true] sublane_stride 1 : memref<512x128xf32, #tpu.memory_space<vmem>>, vector<8x128xf32> loc(#loc242)
      %30 = tpu.load %16[%c104, %c0] sublanes [true, true, true, true, true, true, true, true] sublane_stride 1 : memref<512x128xf32, #tpu.memory_space<vmem>>, vector<8x128xf32> loc(#loc242)
      %31 = tpu.load %16[%c112, %c0] sublanes [true, true, true, true, true, true, true, true] sublane_stride 1 : memref<512x128xf32, #tpu.memory_space<vmem>>, vector<8x128xf32> loc(#loc242)
      %32 = tpu.load %16[%c120, %c0] sublanes [true, true, true, true, true, true, true, true] sublane_stride 1 : memref<512x128xf32, #tpu.memory_space<vmem>>, vector<8x128xf32> loc(#loc242)
      %33 = tpu.load %16[%c128, %c0] sublanes [true, true, true, true, true, true, true, true] sublane_stride 1 : memref<512x128xf32, #tpu.memory_space<vmem>>, vector<8x128xf32> loc(#loc242)
      %34 = tpu.load %16[%c136, %c0] sublanes [true, true, true, true, true, true, true, true] sublane_stride 1 : memref<512x128xf32, #tpu.memory_space<vmem>>, vector<8x128xf32> loc(#loc242)
      %35 = tpu.load %16[%c144, %c0] sublanes [true, true, true, true, true, true, true, true] sublane_stride 1 : memref<512x128xf32, #tpu.memory_space<vmem>>, vector<8x128xf32> loc(#loc242)
      %36 = tpu.load %16[%c152, %c0] sublanes [true, true, true, true, true, true, true, true] sublane_stride 1 : memref<512x128xf32, #tpu.memory_space<vmem>>, vector<8x128xf32> loc(#loc242)
      %37 = tpu.load %16[%c160, %c0] sublanes [true, true, true, true, true, true, true, true] sublane_stride 1 : memref<512x128xf32, #tpu.memory_space<vmem>>, vector<8x128xf32> loc(#loc242)
      %38 = tpu.load %16[%c168, %c0] sublanes [true, true, true, true, true, true, true, true] sublane_stride 1 : memref<512x128xf32, #tpu.memory_space<vmem>>, vector<8x128xf32> loc(#loc242)
      %39 = tpu.load %16[%c176, %c0] sublanes [true, true, true, true, true, true, true, true] sublane_stride 1 : memref<512x128xf32, #tpu.memory_space<vmem>>, vector<8x128xf32> loc(#loc242)
      %40 = tpu.load %16[%c184, %c0] sublanes [true, true, true, true, true, true, true, true] sublane_stride 1 : memref<512x128xf32, #tpu.memory_space<vmem>>, vector<8x128xf32> loc(#loc242)
      %41 = tpu.load %16[%c192, %c0] sublanes [true, true, true, true, true, true, true, true] sublane_stride 1 : memref<512x128xf32, #tpu.memory_space<vmem>>, vector<8x128xf32> loc(#loc242)
      %42 = tpu.load %16[%c200, %c0] sublanes [true, true, true, true, true, true, true, true] sublane_stride 1 : memref<512x128xf32, #tpu.memory_space<vmem>>, vector<8x128xf32> loc(#loc242)
      %43 = tpu.load %16[%c208, %c0] sublanes [true, true, true, true, true, true, true, true] sublane_stride 1 : memref<512x128xf32, #tpu.memory_space<vmem>>, vector<8x128xf32> loc(#loc242)
      %44 = tpu.load %16[%c216, %c0] sublanes [true, true, true, true, true, true, true, true] sublane_stride 1 : memref<512x128xf32, #tpu.memory_space<vmem>>, vector<8x128xf32> loc(#loc242)
      %45 = tpu.load %16[%c224, %c0] sublanes [true, true, true, true, true, true, true, true] sublane_stride 1 : memref<512x128xf32, #tpu.memory_space<vmem>>, vector<8x128xf32> loc(#loc242)
      %46 = tpu.load %16[%c232, %c0] sublanes [true, true, true, true, true, true, true, true] sublane_stride 1 : memref<512x128xf32, #tpu.memory_space<vmem>>, vector<8x128xf32> loc(#loc242)
      %47 = tpu.load %16[%c240, %c0] sublanes [true, true, true, true, true, true, true, true] sublane_stride 1 : memref<512x128xf32, #tpu.memory_space<vmem>>, vector<8x128xf32> loc(#loc242)
      %48 = tpu.load %16[%c248, %c0] sublanes [true, true, true, true, true, true, true, true] sublane_stride 1 : memref<512x128xf32, #tpu.memory_space<vmem>>, vector<8x128xf32> loc(#loc242)
      %49 = tpu.load %16[%c256, %c0] sublanes [true, true, true, true, true, true, true, true] sublane_stride 1 : memref<512x128xf32, #tpu.memory_space<vmem>>, vector<8x128xf32> loc(#loc242)
      %50 = tpu.load %16[%c264, %c0] sublanes [true, true, true, true, true, true, true, true] sublane_stride 1 : memref<512x128xf32, #tpu.memory_space<vmem>>, vector<8x128xf32> loc(#loc242)
      %51 = tpu.load %16[%c272, %c0] sublanes [true, true, true, true, true, true, true, true] sublane_stride 1 : memref<512x128xf32, #tpu.memory_space<vmem>>, vector<8x128xf32> loc(#loc242)
      %52 = tpu.load %16[%c280, %c0] sublanes [true, true, true, true, true, true, true, true] sublane_stride 1 : memref<512x128xf32, #tpu.memory_space<vmem>>, vector<8x128xf32> loc(#loc242)
      %53 = tpu.load %16[%c288, %c0] sublanes [true, true, true, true, true, true, true, true] sublane_stride 1 : memref<512x128xf32, #tpu.memory_space<vmem>>, vector<8x128xf32> loc(#loc242)
      %54 = tpu.load %16[%c296, %c0] sublanes [true, true, true, true, true, true, true, true] sublane_stride 1 : memref<512x128xf32, #tpu.memory_space<vmem>>, vector<8x128xf32> loc(#loc242)
      %55 = tpu.load %16[%c304, %c0] sublanes [true, true, true, true, true, true, true, true] sublane_stride 1 : memref<512x128xf32, #tpu.memory_space<vmem>>, vector<8x128xf32> loc(#loc242)
      %56 = tpu.load %16[%c312, %c0] sublanes [true, true, true, true, true, true, true, true] sublane_stride 1 : memref<512x128xf32, #tpu.memory_space<vmem>>, vector<8x128xf32> loc(#loc242)
      %57 = tpu.load %16[%c320, %c0] sublanes [true, true, true, true, true, true, true, true] sublane_stride 1 : memref<512x128xf32, #tpu.memory_space<vmem>>, vector<8x128xf32> loc(#loc242)
      %58 = tpu.load %16[%c328, %c0] sublanes [true, true, true, true, true, true, true, true] sublane_stride 1 : memref<512x128xf32, #tpu.memory_space<vmem>>, vector<8x128xf32> loc(#loc242)
      %59 = tpu.load %16[%c336, %c0] sublanes [true, true, true, true, true, true, true, true] sublane_stride 1 : memref<512x128xf32, #tpu.memory_space<vmem>>, vector<8x128xf32> loc(#loc242)
      %60 = tpu.load %16[%c344, %c0] sublanes [true, true, true, true, true, true, true, true] sublane_stride 1 : memref<512x128xf32, #tpu.memory_space<vmem>>, vector<8x128xf32> loc(#loc242)
      %61 = tpu.load %16[%c352, %c0] sublanes [true, true, true, true, true, true, true, true] sublane_stride 1 : memref<512x128xf32, #tpu.memory_space<vmem>>, vector<8x128xf32> loc(#loc242)
      %62 = tpu.load %16[%c360, %c0] sublanes [true, true, true, true, true, true, true, true] sublane_stride 1 : memref<512x128xf32, #tpu.memory_space<vmem>>, vector<8x128xf32> loc(#loc242)
      %63 = tpu.load %16[%c368, %c0] sublanes [true, true, true, true, true, true, true, true] sublane_stride 1 : memref<512x128xf32, #tpu.memory_space<vmem>>, vector<8x128xf32> loc(#loc242)
      %64 = tpu.load %16[%c376, %c0] sublanes [true, true, true, true, true, true, true, true] sublane_stride 1 : memref<512x128xf32, #tpu.memory_space<vmem>>, vector<8x128xf32> loc(#loc242)
      %65 = tpu.load %16[%c384, %c0] sublanes [true, true, true, true, true, true, true, true] sublane_stride 1 : memref<512x128xf32, #tpu.memory_space<vmem>>, vector<8x128xf32> loc(#loc242)
      %66 = tpu.load %16[%c392, %c0] sublanes [true, true, true, true, true, true, true, true] sublane_stride 1 : memref<512x128xf32, #tpu.memory_space<vmem>>, vector<8x128xf32> loc(#loc242)
      %67 = tpu.load %16[%c400, %c0] sublanes [true, true, true, true, true, true, true, true] sublane_stride 1 : memref<512x128xf32, #tpu.memory_space<vmem>>, vector<8x128xf32> loc(#loc242)
      %68 = tpu.load %16[%c408, %c0] sublanes [true, true, true, true, true, true, true, true] sublane_stride 1 : memref<512x128xf32, #tpu.memory_space<vmem>>, vector<8x128xf32> loc(#loc242)
      %69 = tpu.load %16[%c416, %c0] sublanes [true, true, true, true, true, true, true, true] sublane_stride 1 : memref<512x128xf32, #tpu.memory_space<vmem>>, vector<8x128xf32> loc(#loc242)
      %70 = tpu.load %16[%c424, %c0] sublanes [true, true, true, true, true, true, true, true] sublane_stride 1 : memref<512x128xf32, #tpu.memory_space<vmem>>, vector<8x128xf32> loc(#loc242)
      %71 = tpu.load %16[%c432, %c0] sublanes [true, true, true, true, true, true, true, true] sublane_stride 1 : memref<512x128xf32, #tpu.memory_space<vmem>>, vector<8x128xf32> loc(#loc242)
      %72 = tpu.load %16[%c440, %c0] sublanes [true, true, true, true, true, true, true, true] sublane_stride 1 : memref<512x128xf32, #tpu.memory_space<vmem>>, vector<8x128xf32> loc(#loc242)
      %73 = tpu.load %16[%c448, %c0] sublanes [true, true, true, true, true, true, true, true] sublane_stride 1 : memref<512x128xf32, #tpu.memory_space<vmem>>, vector<8x128xf32> loc(#loc242)
      %74 = tpu.load %16[%c456, %c0] sublanes [true, true, true, true, true, true, true, true] sublane_stride 1 : memref<512x128xf32, #tpu.memory_space<vmem>>, vector<8x128xf32> loc(#loc242)
      %75 = tpu.load %16[%c464, %c0] sublanes [true, true, true, true, true, true, true, true] sublane_stride 1 : memref<512x128xf32, #tpu.memory_space<vmem>>, vector<8x128xf32> loc(#loc242)
      %76 = tpu.load %16[%c472, %c0] sublanes [true, true, true, true, true, true, true, true] sublane_stride 1 : memref<512x128xf32, #tpu.memory_space<vmem>>, vector<8x128xf32> loc(#loc242)
      %77 = tpu.load %16[%c480, %c0] sublanes [true, true, true, true, true, true, true, true] sublane_stride 1 : memref<512x128xf32, #tpu.memory_space<vmem>>, vector<8x128xf32> loc(#loc242)
      %78 = tpu.load %16[%c488, %c0] sublanes [true, true, true, true, true, true, true, true] sublane_stride 1 : memref<512x128xf32, #tpu.memory_space<vmem>>, vector<8x128xf32> loc(#loc242)
      %79 = tpu.load %16[%c496, %c0] sublanes [true, true, true, true, true, true, true, true] sublane_stride 1 : memref<512x128xf32, #tpu.memory_space<vmem>>, vector<8x128xf32> loc(#loc242)
      %80 = tpu.load %16[%c504, %c0] sublanes [true, true, true, true, true, true, true, true] sublane_stride 1 : memref<512x128xf32, #tpu.memory_space<vmem>>, vector<8x128xf32> loc(#loc242)
      %81 = tpu.memref_slice %4[%c0_i32, %c0_i32] : memref<512x128xf32, #tpu.tiled<(1,128),[1,1]>, #tpu.memory_space<vmem>> -> memref<512x128xf32, #tpu.tiled<(1,128),[1,1]>, #tpu.memory_space<vmem>> loc(#loc243)
      %82 = tpu.erase_memref_layout %81 : memref<512x128xf32, #tpu.tiled<(1,128),[1,1]>, #tpu.memory_space<vmem>> -> memref<512x128xf32, #tpu.memory_space<vmem>> loc(#loc243)
      %83 = tpu.load %82[%c0, %c0] sublanes [true, true, true, true, true, true, true, true] sublane_stride 1 : memref<512x128xf32, #tpu.memory_space<vmem>>, vector<8x128xf32> loc(#loc243)
      %84 = tpu.load %82[%c8, %c0] sublanes [true, true, true, true, true, true, true, true] sublane_stride 1 : memref<512x128xf32, #tpu.memory_space<vmem>>, vector<8x128xf32> loc(#loc243)
      %85 = tpu.load %82[%c16, %c0] sublanes [true, true, true, true, true, true, true, true] sublane_stride 1 : memref<512x128xf32, #tpu.memory_space<vmem>>, vector<8x128xf32> loc(#loc243)
      %86 = tpu.load %82[%c24, %c0] sublanes [true, true, true, true, true, true, true, true] sublane_stride 1 : memref<512x128xf32, #tpu.memory_space<vmem>>, vector<8x128xf32> loc(#loc243)
      %87 = tpu.load %82[%c32, %c0] sublanes [true, true, true, true, true, true, true, true] sublane_stride 1 : memref<512x128xf32, #tpu.memory_space<vmem>>, vector<8x128xf32> loc(#loc243)
      %88 = tpu.load %82[%c40, %c0] sublanes [true, true, true, true, true, true, true, true] sublane_stride 1 : memref<512x128xf32, #tpu.memory_space<vmem>>, vector<8x128xf32> loc(#loc243)
      %89 = tpu.load %82[%c48, %c0] sublanes [true, true, true, true, true, true, true, true] sublane_stride 1 : memref<512x128xf32, #tpu.memory_space<vmem>>, vector<8x128xf32> loc(#loc243)
      %90 = tpu.load %82[%c56, %c0] sublanes [true, true, true, true, true, true, true, true] sublane_stride 1 : memref<512x128xf32, #tpu.memory_space<vmem>>, vector<8x128xf32> loc(#loc243)
      %91 = tpu.load %82[%c64, %c0] sublanes [true, true, true, true, true, true, true, true] sublane_stride 1 : memref<512x128xf32, #tpu.memory_space<vmem>>, vector<8x128xf32> loc(#loc243)
      %92 = tpu.load %82[%c72, %c0] sublanes [true, true, true, true, true, true, true, true] sublane_stride 1 : memref<512x128xf32, #tpu.memory_space<vmem>>, vector<8x128xf32> loc(#loc243)
      %93 = tpu.load %82[%c80, %c0] sublanes [true, true, true, true, true, true, true, true] sublane_stride 1 : memref<512x128xf32, #tpu.memory_space<vmem>>, vector<8x128xf32> loc(#loc243)
      %94 = tpu.load %82[%c88, %c0] sublanes [true, true, true, true, true, true, true, true] sublane_stride 1 : memref<512x128xf32, #tpu.memory_space<vmem>>, vector<8x128xf32> loc(#loc243)
      %95 = tpu.load %82[%c96, %c0] sublanes [true, true, true, true, true, true, true, true] sublane_stride 1 : memref<512x128xf32, #tpu.memory_space<vmem>>, vector<8x128xf32> loc(#loc243)
      %96 = tpu.load %82[%c104, %c0] sublanes [true, true, true, true, true, true, true, true] sublane_stride 1 : memref<512x128xf32, #tpu.memory_space<vmem>>, vector<8x128xf32> loc(#loc243)
      %97 = tpu.load %82[%c112, %c0] sublanes [true, true, true, true, true, true, true, true] sublane_stride 1 : memref<512x128xf32, #tpu.memory_space<vmem>>, vector<8x128xf32> loc(#loc243)
      %98 = tpu.load %82[%c120, %c0] sublanes [true, true, true, true, true, true, true, true] sublane_stride 1 : memref<512x128xf32, #tpu.memory_space<vmem>>, vector<8x128xf32> loc(#loc243)
      %99 = tpu.load %82[%c128, %c0] sublanes [true, true, true, true, true, true, true, true] sublane_stride 1 : memref<512x128xf32, #tpu.memory_space<vmem>>, vector<8x128xf32> loc(#loc243)
      %100 = tpu.load %82[%c136, %c0] sublanes [true, true, true, true, true, true, true, true] sublane_stride 1 : memref<512x128xf32, #tpu.memory_space<vmem>>, vector<8x128xf32> loc(#loc243)
      %101 = tpu.load %82[%c144, %c0] sublanes [true, true, true, true, true, true, true, true] sublane_stride 1 : memref<512x128xf32, #tpu.memory_space<vmem>>, vector<8x128xf32> loc(#loc243)
      %102 = tpu.load %82[%c152, %c0] sublanes [true, true, true, true, true, true, true, true] sublane_stride 1 : memref<512x128xf32, #tpu.memory_space<vmem>>, vector<8x128xf32> loc(#loc243)
      %103 = tpu.load %82[%c160, %c0] sublanes [true, true, true, true, true, true, true, true] sublane_stride 1 : memref<512x128xf32, #tpu.memory_space<vmem>>, vector<8x128xf32> loc(#loc243)
      %104 = tpu.load %82[%c168, %c0] sublanes [true, true, true, true, true, true, true, true] sublane_stride 1 : memref<512x128xf32, #tpu.memory_space<vmem>>, vector<8x128xf32> loc(#loc243)
      %105 = tpu.load %82[%c176, %c0] sublanes [true, true, true, true, true, true, true, true] sublane_stride 1 : memref<512x128xf32, #tpu.memory_space<vmem>>, vector<8x128xf32> loc(#loc243)
      %106 = tpu.load %82[%c184, %c0] sublanes [true, true, true, true, true, true, true, true] sublane_stride 1 : memref<512x128xf32, #tpu.memory_space<vmem>>, vector<8x128xf32> loc(#loc243)
      %107 = tpu.load %82[%c192, %c0] sublanes [true, true, true, true, true, true, true, true] sublane_stride 1 : memref<512x128xf32, #tpu.memory_space<vmem>>, vector<8x128xf32> loc(#loc243)
      %108 = tpu.load %82[%c200, %c0] sublanes [true, true, true, true, true, true, true, true] sublane_stride 1 : memref<512x128xf32, #tpu.memory_space<vmem>>, vector<8x128xf32> loc(#loc243)
      %109 = tpu.load %82[%c208, %c0] sublanes [true, true, true, true, true, true, true, true] sublane_stride 1 : memref<512x128xf32, #tpu.memory_space<vmem>>, vector<8x128xf32> loc(#loc243)
      %110 = tpu.load %82[%c216, %c0] sublanes [true, true, true, true, true, true, true, true] sublane_stride 1 : memref<512x128xf32, #tpu.memory_space<vmem>>, vector<8x128xf32> loc(#loc243)
      %111 = tpu.load %82[%c224, %c0] sublanes [true, true, true, true, true, true, true, true] sublane_stride 1 : memref<512x128xf32, #tpu.memory_space<vmem>>, vector<8x128xf32> loc(#loc243)
      %112 = tpu.load %82[%c232, %c0] sublanes [true, true, true, true, true, true, true, true] sublane_stride 1 : memref<512x128xf32, #tpu.memory_space<vmem>>, vector<8x128xf32> loc(#loc243)
      %113 = tpu.load %82[%c240, %c0] sublanes [true, true, true, true, true, true, true, true] sublane_stride 1 : memref<512x128xf32, #tpu.memory_space<vmem>>, vector<8x128xf32> loc(#loc243)
      %114 = tpu.load %82[%c248, %c0] sublanes [true, true, true, true, true, true, true, true] sublane_stride 1 : memref<512x128xf32, #tpu.memory_space<vmem>>, vector<8x128xf32> loc(#loc243)
      %115 = tpu.load %82[%c256, %c0] sublanes [true, true, true, true, true, true, true, true] sublane_stride 1 : memref<512x128xf32, #tpu.memory_space<vmem>>, vector<8x128xf32> loc(#loc243)
      %116 = tpu.load %82[%c264, %c0] sublanes [true, true, true, true, true, true, true, true] sublane_stride 1 : memref<512x128xf32, #tpu.memory_space<vmem>>, vector<8x128xf32> loc(#loc243)
      %117 = tpu.load %82[%c272, %c0] sublanes [true, true, true, true, true, true, true, true] sublane_stride 1 : memref<512x128xf32, #tpu.memory_space<vmem>>, vector<8x128xf32> loc(#loc243)
      %118 = tpu.load %82[%c280, %c0] sublanes [true, true, true, true, true, true, true, true] sublane_stride 1 : memref<512x128xf32, #tpu.memory_space<vmem>>, vector<8x128xf32> loc(#loc243)
      %119 = tpu.load %82[%c288, %c0] sublanes [true, true, true, true, true, true, true, true] sublane_stride 1 : memref<512x128xf32, #tpu.memory_space<vmem>>, vector<8x128xf32> loc(#loc243)
      %120 = tpu.load %82[%c296, %c0] sublanes [true, true, true, true, true, true, true, true] sublane_stride 1 : memref<512x128xf32, #tpu.memory_space<vmem>>, vector<8x128xf32> loc(#loc243)
      %121 = tpu.load %82[%c304, %c0] sublanes [true, true, true, true, true, true, true, true] sublane_stride 1 : memref<512x128xf32, #tpu.memory_space<vmem>>, vector<8x128xf32> loc(#loc243)
      %122 = tpu.load %82[%c312, %c0] sublanes [true, true, true, true, true, true, true, true] sublane_stride 1 : memref<512x128xf32, #tpu.memory_space<vmem>>, vector<8x128xf32> loc(#loc243)
      %123 = tpu.load %82[%c320, %c0] sublanes [true, true, true, true, true, true, true, true] sublane_stride 1 : memref<512x128xf32, #tpu.memory_space<vmem>>, vector<8x128xf32> loc(#loc243)
      %124 = tpu.load %82[%c328, %c0] sublanes [true, true, true, true, true, true, true, true] sublane_stride 1 : memref<512x128xf32, #tpu.memory_space<vmem>>, vector<8x128xf32> loc(#loc243)
      %125 = tpu.load %82[%c336, %c0] sublanes [true, true, true, true, true, true, true, true] sublane_stride 1 : memref<512x128xf32, #tpu.memory_space<vmem>>, vector<8x128xf32> loc(#loc243)
      %126 = tpu.load %82[%c344, %c0] sublanes [true, true, true, true, true, true, true, true] sublane_stride 1 : memref<512x128xf32, #tpu.memory_space<vmem>>, vector<8x128xf32> loc(#loc243)
      %127 = tpu.load %82[%c352, %c0] sublanes [true, true, true, true, true, true, true, true] sublane_stride 1 : memref<512x128xf32, #tpu.memory_space<vmem>>, vector<8x128xf32> loc(#loc243)
      %128 = tpu.load %82[%c360, %c0] sublanes [true, true, true, true, true, true, true, true] sublane_stride 1 : memref<512x128xf32, #tpu.memory_space<vmem>>, vector<8x128xf32> loc(#loc243)
      %129 = tpu.load %82[%c368, %c0] sublanes [true, true, true, true, true, true, true, true] sublane_stride 1 : memref<512x128xf32, #tpu.memory_space<vmem>>, vector<8x128xf32> loc(#loc243)
      %130 = tpu.load %82[%c376, %c0] sublanes [true, true, true, true, true, true, true, true] sublane_stride 1 : memref<512x128xf32, #tpu.memory_space<vmem>>, vector<8x128xf32> loc(#loc243)
      %131 = tpu.load %82[%c384, %c0] sublanes [true, true, true, true, true, true, true, true] sublane_stride 1 : memref<512x128xf32, #tpu.memory_space<vmem>>, vector<8x128xf32> loc(#loc243)
      %132 = tpu.load %82[%c392, %c0] sublanes [true, true, true, true, true, true, true, true] sublane_stride 1 : memref<512x128xf32, #tpu.memory_space<vmem>>, vector<8x128xf32> loc(#loc243)
      %133 = tpu.load %82[%c400, %c0] sublanes [true, true, true, true, true, true, true, true] sublane_stride 1 : memref<512x128xf32, #tpu.memory_space<vmem>>, vector<8x128xf32> loc(#loc243)
      %134 = tpu.load %82[%c408, %c0] sublanes [true, true, true, true, true, true, true, true] sublane_stride 1 : memref<512x128xf32, #tpu.memory_space<vmem>>, vector<8x128xf32> loc(#loc243)
      %135 = tpu.load %82[%c416, %c0] sublanes [true, true, true, true, true, true, true, true] sublane_stride 1 : memref<512x128xf32, #tpu.memory_space<vmem>>, vector<8x128xf32> loc(#loc243)
      %136 = tpu.load %82[%c424, %c0] sublanes [true, true, true, true, true, true, true, true] sublane_stride 1 : memref<512x128xf32, #tpu.memory_space<vmem>>, vector<8x128xf32> loc(#loc243)
      %137 = tpu.load %82[%c432, %c0] sublanes [true, true, true, true, true, true, true, true] sublane_stride 1 : memref<512x128xf32, #tpu.memory_space<vmem>>, vector<8x128xf32> loc(#loc243)
      %138 = tpu.load %82[%c440, %c0] sublanes [true, true, true, true, true, true, true, true] sublane_stride 1 : memref<512x128xf32, #tpu.memory_space<vmem>>, vector<8x128xf32> loc(#loc243)
      %139 = tpu.load %82[%c448, %c0] sublanes [true, true, true, true, true, true, true, true] sublane_stride 1 : memref<512x128xf32, #tpu.memory_space<vmem>>, vector<8x128xf32> loc(#loc243)
      %140 = tpu.load %82[%c456, %c0] sublanes [true, true, true, true, true, true, true, true] sublane_stride 1 : memref<512x128xf32, #tpu.memory_space<vmem>>, vector<8x128xf32> loc(#loc243)
      %141 = tpu.load %82[%c464, %c0] sublanes [true, true, true, true, true, true, true, true] sublane_stride 1 : memref<512x128xf32, #tpu.memory_space<vmem>>, vector<8x128xf32> loc(#loc243)
      %142 = tpu.load %82[%c472, %c0] sublanes [true, true, true, true, true, true, true, true] sublane_stride 1 : memref<512x128xf32, #tpu.memory_space<vmem>>, vector<8x128xf32> loc(#loc243)
      %143 = tpu.load %82[%c480, %c0] sublanes [true, true, true, true, true, true, true, true] sublane_stride 1 : memref<512x128xf32, #tpu.memory_space<vmem>>, vector<8x128xf32> loc(#loc243)
      %144 = tpu.load %82[%c488, %c0] sublanes [true, true, true, true, true, true, true, true] sublane_stride 1 : memref<512x128xf32, #tpu.memory_space<vmem>>, vector<8x128xf32> loc(#loc243)
      %145 = tpu.load %82[%c496, %c0] sublanes [true, true, true, true, true, true, true, true] sublane_stride 1 : memref<512x128xf32, #tpu.memory_space<vmem>>, vector<8x128xf32> loc(#loc243)
      %146 = tpu.load %82[%c504, %c0] sublanes [true, true, true, true, true, true, true, true] sublane_stride 1 : memref<512x128xf32, #tpu.memory_space<vmem>>, vector<8x128xf32> loc(#loc243)
      %147 = tpu.memref_slice %arg5[%c0_i32, %c0_i32, %c0_i32] : memref<1x512x128xbf16, #tpu.tiled<(8,128)(2,1),[64,1,1]>, #tpu.memory_space<vmem>> -> memref<1x512x128xbf16, #tpu.tiled<(8,128)(2,1),[64,1,1]>, #tpu.memory_space<vmem>> loc(#loc244)
      %148 = tpu.erase_memref_layout %147 : memref<1x512x128xbf16, #tpu.tiled<(8,128)(2,1),[64,1,1]>, #tpu.memory_space<vmem>> -> memref<1x512x128xbf16, #tpu.memory_space<vmem>> loc(#loc244)
      %149 = tpu.load %148[%c0, %c0, %c0] sublanes [true, true, true, true, false, false, false, false] sublane_stride 1 : memref<1x512x128xbf16, #tpu.memory_space<vmem>>, vector<8x128x2xbf16> loc(#loc244)
      %150 = tpu.load %148[%c0, %c8, %c0] sublanes [true, true, true, true, false, false, false, false] sublane_stride 1 : memref<1x512x128xbf16, #tpu.memory_space<vmem>>, vector<8x128x2xbf16> loc(#loc244)
      %151 = tpu.load %148[%c0, %c16, %c0] sublanes [true, true, true, true, false, false, false, false] sublane_stride 1 : memref<1x512x128xbf16, #tpu.memory_space<vmem>>, vector<8x128x2xbf16> loc(#loc244)
      %152 = tpu.load %148[%c0, %c24, %c0] sublanes [true, true, true, true, false, false, false, false] sublane_stride 1 : memref<1x512x128xbf16, #tpu.memory_space<vmem>>, vector<8x128x2xbf16> loc(#loc244)
      %153 = tpu.load %148[%c0, %c32, %c0] sublanes [true, true, true, true, false, false, false, false] sublane_stride 1 : memref<1x512x128xbf16, #tpu.memory_space<vmem>>, vector<8x128x2xbf16> loc(#loc244)
      %154 = tpu.load %148[%c0, %c40, %c0] sublanes [true, true, true, true, false, false, false, false] sublane_stride 1 : memref<1x512x128xbf16, #tpu.memory_space<vmem>>, vector<8x128x2xbf16> loc(#loc244)
      %155 = tpu.load %148[%c0, %c48, %c0] sublanes [true, true, true, true, false, false, false, false] sublane_stride 1 : memref<1x512x128xbf16, #tpu.memory_space<vmem>>, vector<8x128x2xbf16> loc(#loc244)
      %156 = tpu.load %148[%c0, %c56, %c0] sublanes [true, true, true, true, false, false, false, false] sublane_stride 1 : memref<1x512x128xbf16, #tpu.memory_space<vmem>>, vector<8x128x2xbf16> loc(#loc244)
      %157 = tpu.load %148[%c0, %c64, %c0] sublanes [true, true, true, true, false, false, false, false] sublane_stride 1 : memref<1x512x128xbf16, #tpu.memory_space<vmem>>, vector<8x128x2xbf16> loc(#loc244)
      %158 = tpu.load %148[%c0, %c72, %c0] sublanes [true, true, true, true, false, false, false, false] sublane_stride 1 : memref<1x512x128xbf16, #tpu.memory_space<vmem>>, vector<8x128x2xbf16> loc(#loc244)
      %159 = tpu.load %148[%c0, %c80, %c0] sublanes [true, true, true, true, false, false, false, false] sublane_stride 1 : memref<1x512x128xbf16, #tpu.memory_space<vmem>>, vector<8x128x2xbf16> loc(#loc244)
      %160 = tpu.load %148[%c0, %c88, %c0] sublanes [true, true, true, true, false, false, false, false] sublane_stride 1 : memref<1x512x128xbf16, #tpu.memory_space<vmem>>, vector<8x128x2xbf16> loc(#loc244)
      %161 = tpu.load %148[%c0, %c96, %c0] sublanes [true, true, true, true, false, false, false, false] sublane_stride 1 : memref<1x512x128xbf16, #tpu.memory_space<vmem>>, vector<8x128x2xbf16> loc(#loc244)
      %162 = tpu.load %148[%c0, %c104, %c0] sublanes [true, true, true, true, false, false, false, false] sublane_stride 1 : memref<1x512x128xbf16, #tpu.memory_space<vmem>>, vector<8x128x2xbf16> loc(#loc244)
      %163 = tpu.load %148[%c0, %c112, %c0] sublanes [true, true, true, true, false, false, false, false] sublane_stride 1 : memref<1x512x128xbf16, #tpu.memory_space<vmem>>, vector<8x128x2xbf16> loc(#loc244)
      %164 = tpu.load %148[%c0, %c120, %c0] sublanes [true, true, true, true, false, false, false, false] sublane_stride 1 : memref<1x512x128xbf16, #tpu.memory_space<vmem>>, vector<8x128x2xbf16> loc(#loc244)
      %165 = tpu.load %148[%c0, %c128, %c0] sublanes [true, true, true, true, false, false, false, false] sublane_stride 1 : memref<1x512x128xbf16, #tpu.memory_space<vmem>>, vector<8x128x2xbf16> loc(#loc244)
      %166 = tpu.load %148[%c0, %c136, %c0] sublanes [true, true, true, true, false, false, false, false] sublane_stride 1 : memref<1x512x128xbf16, #tpu.memory_space<vmem>>, vector<8x128x2xbf16> loc(#loc244)
      %167 = tpu.load %148[%c0, %c144, %c0] sublanes [true, true, true, true, false, false, false, false] sublane_stride 1 : memref<1x512x128xbf16, #tpu.memory_space<vmem>>, vector<8x128x2xbf16> loc(#loc244)
      %168 = tpu.load %148[%c0, %c152, %c0] sublanes [true, true, true, true, false, false, false, false] sublane_stride 1 : memref<1x512x128xbf16, #tpu.memory_space<vmem>>, vector<8x128x2xbf16> loc(#loc244)
      %169 = tpu.load %148[%c0, %c160, %c0] sublanes [true, true, true, true, false, false, false, false] sublane_stride 1 : memref<1x512x128xbf16, #tpu.memory_space<vmem>>, vector<8x128x2xbf16> loc(#loc244)
      %170 = tpu.load %148[%c0, %c168, %c0] sublanes [true, true, true, true, false, false, false, false] sublane_stride 1 : memref<1x512x128xbf16, #tpu.memory_space<vmem>>, vector<8x128x2xbf16> loc(#loc244)
      %171 = tpu.load %148[%c0, %c176, %c0] sublanes [true, true, true, true, false, false, false, false] sublane_stride 1 : memref<1x512x128xbf16, #tpu.memory_space<vmem>>, vector<8x128x2xbf16> loc(#loc244)
      %172 = tpu.load %148[%c0, %c184, %c0] sublanes [true, true, true, true, false, false, false, false] sublane_stride 1 : memref<1x512x128xbf16, #tpu.memory_space<vmem>>, vector<8x128x2xbf16> loc(#loc244)
      %173 = tpu.load %148[%c0, %c192, %c0] sublanes [true, true, true, true, false, false, false, false] sublane_stride 1 : memref<1x512x128xbf16, #tpu.memory_space<vmem>>, vector<8x128x2xbf16> loc(#loc244)
      %174 = tpu.load %148[%c0, %c200, %c0] sublanes [true, true, true, true, false, false, false, false] sublane_stride 1 : memref<1x512x128xbf16, #tpu.memory_space<vmem>>, vector<8x128x2xbf16> loc(#loc244)
      %175 = tpu.load %148[%c0, %c208, %c0] sublanes [true, true, true, true, false, false, false, false] sublane_stride 1 : memref<1x512x128xbf16, #tpu.memory_space<vmem>>, vector<8x128x2xbf16> loc(#loc244)
      %176 = tpu.load %148[%c0, %c216, %c0] sublanes [true, true, true, true, false, false, false, false] sublane_stride 1 : memref<1x512x128xbf16, #tpu.memory_space<vmem>>, vector<8x128x2xbf16> loc(#loc244)
      %177 = tpu.load %148[%c0, %c224, %c0] sublanes [true, true, true, true, false, false, false, false] sublane_stride 1 : memref<1x512x128xbf16, #tpu.memory_space<vmem>>, vector<8x128x2xbf16> loc(#loc244)
      %178 = tpu.load %148[%c0, %c232, %c0] sublanes [true, true, true, true, false, false, false, false] sublane_stride 1 : memref<1x512x128xbf16, #tpu.memory_space<vmem>>, vector<8x128x2xbf16> loc(#loc244)
      %179 = tpu.load %148[%c0, %c240, %c0] sublanes [true, true, true, true, false, false, false, false] sublane_stride 1 : memref<1x512x128xbf16, #tpu.memory_space<vmem>>, vector<8x128x2xbf16> loc(#loc244)
      %180 = tpu.load %148[%c0, %c248, %c0] sublanes [true, true, true, true, false, false, false, false] sublane_stride 1 : memref<1x512x128xbf16, #tpu.memory_space<vmem>>, vector<8x128x2xbf16> loc(#loc244)
      %181 = tpu.load %148[%c0, %c256, %c0] sublanes [true, true, true, true, false, false, false, false] sublane_stride 1 : memref<1x512x128xbf16, #tpu.memory_space<vmem>>, vector<8x128x2xbf16> loc(#loc244)
      %182 = tpu.load %148[%c0, %c264, %c0] sublanes [true, true, true, true, false, false, false, false] sublane_stride 1 : memref<1x512x128xbf16, #tpu.memory_space<vmem>>, vector<8x128x2xbf16> loc(#loc244)
      %183 = tpu.load %148[%c0, %c272, %c0] sublanes [true, true, true, true, false, false, false, false] sublane_stride 1 : memref<1x512x128xbf16, #tpu.memory_space<vmem>>, vector<8x128x2xbf16> loc(#loc244)
      %184 = tpu.load %148[%c0, %c280, %c0] sublanes [true, true, true, true, false, false, false, false] sublane_stride 1 : memref<1x512x128xbf16, #tpu.memory_space<vmem>>, vector<8x128x2xbf16> loc(#loc244)
      %185 = tpu.load %148[%c0, %c288, %c0] sublanes [true, true, true, true, false, false, false, false] sublane_stride 1 : memref<1x512x128xbf16, #tpu.memory_space<vmem>>, vector<8x128x2xbf16> loc(#loc244)
      %186 = tpu.load %148[%c0, %c296, %c0] sublanes [true, true, true, true, false, false, false, false] sublane_stride 1 : memref<1x512x128xbf16, #tpu.memory_space<vmem>>, vector<8x128x2xbf16> loc(#loc244)
      %187 = tpu.load %148[%c0, %c304, %c0] sublanes [true, true, true, true, false, false, false, false] sublane_stride 1 : memref<1x512x128xbf16, #tpu.memory_space<vmem>>, vector<8x128x2xbf16> loc(#loc244)
      %188 = tpu.load %148[%c0, %c312, %c0] sublanes [true, true, true, true, false, false, false, false] sublane_stride 1 : memref<1x512x128xbf16, #tpu.memory_space<vmem>>, vector<8x128x2xbf16> loc(#loc244)
      %189 = tpu.load %148[%c0, %c320, %c0] sublanes [true, true, true, true, false, false, false, false] sublane_stride 1 : memref<1x512x128xbf16, #tpu.memory_space<vmem>>, vector<8x128x2xbf16> loc(#loc244)
      %190 = tpu.load %148[%c0, %c328, %c0] sublanes [true, true, true, true, false, false, false, false] sublane_stride 1 : memref<1x512x128xbf16, #tpu.memory_space<vmem>>, vector<8x128x2xbf16> loc(#loc244)
      %191 = tpu.load %148[%c0, %c336, %c0] sublanes [true, true, true, true, false, false, false, false] sublane_stride 1 : memref<1x512x128xbf16, #tpu.memory_space<vmem>>, vector<8x128x2xbf16> loc(#loc244)
      %192 = tpu.load %148[%c0, %c344, %c0] sublanes [true, true, true, true, false, false, false, false] sublane_stride 1 : memref<1x512x128xbf16, #tpu.memory_space<vmem>>, vector<8x128x2xbf16> loc(#loc244)
      %193 = tpu.load %148[%c0, %c352, %c0] sublanes [true, true, true, true, false, false, false, false] sublane_stride 1 : memref<1x512x128xbf16, #tpu.memory_space<vmem>>, vector<8x128x2xbf16> loc(#loc244)
      %194 = tpu.load %148[%c0, %c360, %c0] sublanes [true, true, true, true, false, false, false, false] sublane_stride 1 : memref<1x512x128xbf16, #tpu.memory_space<vmem>>, vector<8x128x2xbf16> loc(#loc244)
      %195 = tpu.load %148[%c0, %c368, %c0] sublanes [true, true, true, true, false, false, false, false] sublane_stride 1 : memref<1x512x128xbf16, #tpu.memory_space<vmem>>, vector<8x128x2xbf16> loc(#loc244)
      %196 = tpu.load %148[%c0, %c376, %c0] sublanes [true, true, true, true, false, false, false, false] sublane_stride 1 : memref<1x512x128xbf16, #tpu.memory_space<vmem>>, vector<8x128x2xbf16> loc(#loc244)
      %197 = tpu.load %148[%c0, %c384, %c0] sublanes [true, true, true, true, false, false, false, false] sublane_stride 1 : memref<1x512x128xbf16, #tpu.memory_space<vmem>>, vector<8x128x2xbf16> loc(#loc244)
      %198 = tpu.load %148[%c0, %c392, %c0] sublanes [true, true, true, true, false, false, false, false] sublane_stride 1 : memref<1x512x128xbf16, #tpu.memory_space<vmem>>, vector<8x128x2xbf16> loc(#loc244)
      %199 = tpu.load %148[%c0, %c400, %c0] sublanes [true, true, true, true, false, false, false, false] sublane_stride 1 : memref<1x512x128xbf16, #tpu.memory_space<vmem>>, vector<8x128x2xbf16> loc(#loc244)
      %200 = tpu.load %148[%c0, %c408, %c0] sublanes [true, true, true, true, false, false, false, false] sublane_stride 1 : memref<1x512x128xbf16, #tpu.memory_space<vmem>>, vector<8x128x2xbf16> loc(#loc244)
      %201 = tpu.load %148[%c0, %c416, %c0] sublanes [true, true, true, true, false, false, false, false] sublane_stride 1 : memref<1x512x128xbf16, #tpu.memory_space<vmem>>, vector<8x128x2xbf16> loc(#loc244)
      %202 = tpu.load %148[%c0, %c424, %c0] sublanes [true, true, true, true, false, false, false, false] sublane_stride 1 : memref<1x512x128xbf16, #tpu.memory_space<vmem>>, vector<8x128x2xbf16> loc(#loc244)
      %203 = tpu.load %148[%c0, %c432, %c0] sublanes [true, true, true, true, false, false, false, false] sublane_stride 1 : memref<1x512x128xbf16, #tpu.memory_space<vmem>>, vector<8x128x2xbf16> loc(#loc244)
      %204 = tpu.load %148[%c0, %c440, %c0] sublanes [true, true, true, true, false, false, false, false] sublane_stride 1 : memref<1x512x128xbf16, #tpu.memory_space<vmem>>, vector<8x128x2xbf16> loc(#loc244)
      %205 = tpu.load %148[%c0, %c448, %c0] sublanes [true, true, true, true, false, false, false, false] sublane_stride 1 : memref<1x512x128xbf16, #tpu.memory_space<vmem>>, vector<8x128x2xbf16> loc(#loc244)
      %206 = tpu.load %148[%c0, %c456, %c0] sublanes [true, true, true, true, false, false, false, false] sublane_stride 1 : memref<1x512x128xbf16, #tpu.memory_space<vmem>>, vector<8x128x2xbf16> loc(#loc244)
      %207 = tpu.load %148[%c0, %c464, %c0] sublanes [true, true, true, true, false, false, false, false] sublane_stride 1 : memref<1x512x128xbf16, #tpu.memory_space<vmem>>, vector<8x128x2xbf16> loc(#loc244)
      %208 = tpu.load %148[%c0, %c472, %c0] sublanes [true, true, true, true, false, false, false, false] sublane_stride 1 : memref<1x512x128xbf16, #tpu.memory_space<vmem>>, vector<8x128x2xbf16> loc(#loc244)
      %209 = tpu.load %148[%c0, %c480, %c0] sublanes [true, true, true, true, false, false, false, false] sublane_stride 1 : memref<1x512x128xbf16, #tpu.memory_space<vmem>>, vector<8x128x2xbf16> loc(#loc244)
      %210 = tpu.load %148[%c0, %c488, %c0] sublanes [true, true, true, true, false, false, false, false] sublane_stride 1 : memref<1x512x128xbf16, #tpu.memory_space<vmem>>, vector<8x128x2xbf16> loc(#loc244)
      %211 = tpu.load %148[%c0, %c496, %c0] sublanes [true, true, true, true, false, false, false, false] sublane_stride 1 : memref<1x512x128xbf16, #tpu.memory_space<vmem>>, vector<8x128x2xbf16> loc(#loc244)
      %212 = tpu.load %148[%c0, %c504, %c0] sublanes [true, true, true, true, false, false, false, false] sublane_stride 1 : memref<1x512x128xbf16, #tpu.memory_space<vmem>>, vector<8x128x2xbf16> loc(#loc244)
      %213 = tpu.memref_slice %arg6[%c0_i32, %c0_i32, %c0_i32] : memref<1x512x128xbf16, #tpu.tiled<(8,128)(2,1),[64,1,1]>, #tpu.memory_space<vmem>> -> memref<1x512x128xbf16, #tpu.tiled<(8,128)(2,1),[64,1,1]>, #tpu.memory_space<vmem>> loc(#loc245)
      %214 = tpu.erase_memref_layout %213 : memref<1x512x128xbf16, #tpu.tiled<(8,128)(2,1),[64,1,1]>, #tpu.memory_space<vmem>> -> memref<1x512x128xbf16, #tpu.memory_space<vmem>> loc(#loc245)
      %215 = tpu.load %214[%c0, %c0, %c0] sublanes [true, true, true, true, false, false, false, false] sublane_stride 1 : memref<1x512x128xbf16, #tpu.memory_space<vmem>>, vector<8x128x2xbf16> loc(#loc245)
      %216 = tpu.load %214[%c0, %c8, %c0] sublanes [true, true, true, true, false, false, false, false] sublane_stride 1 : memref<1x512x128xbf16, #tpu.memory_space<vmem>>, vector<8x128x2xbf16> loc(#loc245)
      %217 = tpu.load %214[%c0, %c16, %c0] sublanes [true, true, true, true, false, false, false, false] sublane_stride 1 : memref<1x512x128xbf16, #tpu.memory_space<vmem>>, vector<8x128x2xbf16> loc(#loc245)
      %218 = tpu.load %214[%c0, %c24, %c0] sublanes [true, true, true, true, false, false, false, false] sublane_stride 1 : memref<1x512x128xbf16, #tpu.memory_space<vmem>>, vector<8x128x2xbf16> loc(#loc245)
      %219 = tpu.load %214[%c0, %c32, %c0] sublanes [true, true, true, true, false, false, false, false] sublane_stride 1 : memref<1x512x128xbf16, #tpu.memory_space<vmem>>, vector<8x128x2xbf16> loc(#loc245)
      %220 = tpu.load %214[%c0, %c40, %c0] sublanes [true, true, true, true, false, false, false, false] sublane_stride 1 : memref<1x512x128xbf16, #tpu.memory_space<vmem>>, vector<8x128x2xbf16> loc(#loc245)
      %221 = tpu.load %214[%c0, %c48, %c0] sublanes [true, true, true, true, false, false, false, false] sublane_stride 1 : memref<1x512x128xbf16, #tpu.memory_space<vmem>>, vector<8x128x2xbf16> loc(#loc245)
      %222 = tpu.load %214[%c0, %c56, %c0] sublanes [true, true, true, true, false, false, false, false] sublane_stride 1 : memref<1x512x128xbf16, #tpu.memory_space<vmem>>, vector<8x128x2xbf16> loc(#loc245)
      %223 = tpu.load %214[%c0, %c64, %c0] sublanes [true, true, true, true, false, false, false, false] sublane_stride 1 : memref<1x512x128xbf16, #tpu.memory_space<vmem>>, vector<8x128x2xbf16> loc(#loc245)
      %224 = tpu.load %214[%c0, %c72, %c0] sublanes [true, true, true, true, false, false, false, false] sublane_stride 1 : memref<1x512x128xbf16, #tpu.memory_space<vmem>>, vector<8x128x2xbf16> loc(#loc245)
      %225 = tpu.load %214[%c0, %c80, %c0] sublanes [true, true, true, true, false, false, false, false] sublane_stride 1 : memref<1x512x128xbf16, #tpu.memory_space<vmem>>, vector<8x128x2xbf16> loc(#loc245)
      %226 = tpu.load %214[%c0, %c88, %c0] sublanes [true, true, true, true, false, false, false, false] sublane_stride 1 : memref<1x512x128xbf16, #tpu.memory_space<vmem>>, vector<8x128x2xbf16> loc(#loc245)
      %227 = tpu.load %214[%c0, %c96, %c0] sublanes [true, true, true, true, false, false, false, false] sublane_stride 1 : memref<1x512x128xbf16, #tpu.memory_space<vmem>>, vector<8x128x2xbf16> loc(#loc245)
      %228 = tpu.load %214[%c0, %c104, %c0] sublanes [true, true, true, true, false, false, false, false] sublane_stride 1 : memref<1x512x128xbf16, #tpu.memory_space<vmem>>, vector<8x128x2xbf16> loc(#loc245)
      %229 = tpu.load %214[%c0, %c112, %c0] sublanes [true, true, true, true, false, false, false, false] sublane_stride 1 : memref<1x512x128xbf16, #tpu.memory_space<vmem>>, vector<8x128x2xbf16> loc(#loc245)
      %230 = tpu.load %214[%c0, %c120, %c0] sublanes [true, true, true, true, false, false, false, false] sublane_stride 1 : memref<1x512x128xbf16, #tpu.memory_space<vmem>>, vector<8x128x2xbf16> loc(#loc245)
      %231 = tpu.load %214[%c0, %c128, %c0] sublanes [true, true, true, true, false, false, false, false] sublane_stride 1 : memref<1x512x128xbf16, #tpu.memory_space<vmem>>, vector<8x128x2xbf16> loc(#loc245)
      %232 = tpu.load %214[%c0, %c136, %c0] sublanes [true, true, true, true, false, false, false, false] sublane_stride 1 : memref<1x512x128xbf16, #tpu.memory_space<vmem>>, vector<8x128x2xbf16> loc(#loc245)
      %233 = tpu.load %214[%c0, %c144, %c0] sublanes [true, true, true, true, false, false, false, false] sublane_stride 1 : memref<1x512x128xbf16, #tpu.memory_space<vmem>>, vector<8x128x2xbf16> loc(#loc245)
      %234 = tpu.load %214[%c0, %c152, %c0] sublanes [true, true, true, true, false, false, false, false] sublane_stride 1 : memref<1x512x128xbf16, #tpu.memory_space<vmem>>, vector<8x128x2xbf16> loc(#loc245)
      %235 = tpu.load %214[%c0, %c160, %c0] sublanes [true, true, true, true, false, false, false, false] sublane_stride 1 : memref<1x512x128xbf16, #tpu.memory_space<vmem>>, vector<8x128x2xbf16> loc(#loc245)
      %236 = tpu.load %214[%c0, %c168, %c0] sublanes [true, true, true, true, false, false, false, false] sublane_stride 1 : memref<1x512x128xbf16, #tpu.memory_space<vmem>>, vector<8x128x2xbf16> loc(#loc245)
      %237 = tpu.load %214[%c0, %c176, %c0] sublanes [true, true, true, true, false, false, false, false] sublane_stride 1 : memref<1x512x128xbf16, #tpu.memory_space<vmem>>, vector<8x128x2xbf16> loc(#loc245)
      %238 = tpu.load %214[%c0, %c184, %c0] sublanes [true, true, true, true, false, false, false, false] sublane_stride 1 : memref<1x512x128xbf16, #tpu.memory_space<vmem>>, vector<8x128x2xbf16> loc(#loc245)
      %239 = tpu.load %214[%c0, %c192, %c0] sublanes [true, true, true, true, false, false, false, false] sublane_stride 1 : memref<1x512x128xbf16, #tpu.memory_space<vmem>>, vector<8x128x2xbf16> loc(#loc245)
      %240 = tpu.load %214[%c0, %c200, %c0] sublanes [true, true, true, true, false, false, false, false] sublane_stride 1 : memref<1x512x128xbf16, #tpu.memory_space<vmem>>, vector<8x128x2xbf16> loc(#loc245)
      %241 = tpu.load %214[%c0, %c208, %c0] sublanes [true, true, true, true, false, false, false, false] sublane_stride 1 : memref<1x512x128xbf16, #tpu.memory_space<vmem>>, vector<8x128x2xbf16> loc(#loc245)
      %242 = tpu.load %214[%c0, %c216, %c0] sublanes [true, true, true, true, false, false, false, false] sublane_stride 1 : memref<1x512x128xbf16, #tpu.memory_space<vmem>>, vector<8x128x2xbf16> loc(#loc245)
      %243 = tpu.load %214[%c0, %c224, %c0] sublanes [true, true, true, true, false, false, false, false] sublane_stride 1 : memref<1x512x128xbf16, #tpu.memory_space<vmem>>, vector<8x128x2xbf16> loc(#loc245)
      %244 = tpu.load %214[%c0, %c232, %c0] sublanes [true, true, true, true, false, false, false, false] sublane_stride 1 : memref<1x512x128xbf16, #tpu.memory_space<vmem>>, vector<8x128x2xbf16> loc(#loc245)
      %245 = tpu.load %214[%c0, %c240, %c0] sublanes [true, true, true, true, false, false, false, false] sublane_stride 1 : memref<1x512x128xbf16, #tpu.memory_space<vmem>>, vector<8x128x2xbf16> loc(#loc245)
      %246 = tpu.load %214[%c0, %c248, %c0] sublanes [true, true, true, true, false, false, false, false] sublane_stride 1 : memref<1x512x128xbf16, #tpu.memory_space<vmem>>, vector<8x128x2xbf16> loc(#loc245)
      %247 = tpu.load %214[%c0, %c256, %c0] sublanes [true, true, true, true, false, false, false, false] sublane_stride 1 : memref<1x512x128xbf16, #tpu.memory_space<vmem>>, vector<8x128x2xbf16> loc(#loc245)
      %248 = tpu.load %214[%c0, %c264, %c0] sublanes [true, true, true, true, false, false, false, false] sublane_stride 1 : memref<1x512x128xbf16, #tpu.memory_space<vmem>>, vector<8x128x2xbf16> loc(#loc245)
      %249 = tpu.load %214[%c0, %c272, %c0] sublanes [true, true, true, true, false, false, false, false] sublane_stride 1 : memref<1x512x128xbf16, #tpu.memory_space<vmem>>, vector<8x128x2xbf16> loc(#loc245)
      %250 = tpu.load %214[%c0, %c280, %c0] sublanes [true, true, true, true, false, false, false, false] sublane_stride 1 : memref<1x512x128xbf16, #tpu.memory_space<vmem>>, vector<8x128x2xbf16> loc(#loc245)
      %251 = tpu.load %214[%c0, %c288, %c0] sublanes [true, true, true, true, false, false, false, false] sublane_stride 1 : memref<1x512x128xbf16, #tpu.memory_space<vmem>>, vector<8x128x2xbf16> loc(#loc245)
      %252 = tpu.load %214[%c0, %c296, %c0] sublanes [true, true, true, true, false, false, false, false] sublane_stride 1 : memref<1x512x128xbf16, #tpu.memory_space<vmem>>, vector<8x128x2xbf16> loc(#loc245)
      %253 = tpu.load %214[%c0, %c304, %c0] sublanes [true, true, true, true, false, false, false, false] sublane_stride 1 : memref<1x512x128xbf16, #tpu.memory_space<vmem>>, vector<8x128x2xbf16> loc(#loc245)
      %254 = tpu.load %214[%c0, %c312, %c0] sublanes [true, true, true, true, false, false, false, false] sublane_stride 1 : memref<1x512x128xbf16, #tpu.memory_space<vmem>>, vector<8x128x2xbf16> loc(#loc245)
      %255 = tpu.load %214[%c0, %c320, %c0] sublanes [true, true, true, true, false, false, false, false] sublane_stride 1 : memref<1x512x128xbf16, #tpu.memory_space<vmem>>, vector<8x128x2xbf16> loc(#loc245)
      %256 = tpu.load %214[%c0, %c328, %c0] sublanes [true, true, true, true, false, false, false, false] sublane_stride 1 : memref<1x512x128xbf16, #tpu.memory_space<vmem>>, vector<8x128x2xbf16> loc(#loc245)
      %257 = tpu.load %214[%c0, %c336, %c0] sublanes [true, true, true, true, false, false, false, false] sublane_stride 1 : memref<1x512x128xbf16, #tpu.memory_space<vmem>>, vector<8x128x2xbf16> loc(#loc245)
      %258 = tpu.load %214[%c0, %c344, %c0] sublanes [true, true, true, true, false, false, false, false] sublane_stride 1 : memref<1x512x128xbf16, #tpu.memory_space<vmem>>, vector<8x128x2xbf16> loc(#loc245)
      %259 = tpu.load %214[%c0, %c352, %c0] sublanes [true, true, true, true, false, false, false, false] sublane_stride 1 : memref<1x512x128xbf16, #tpu.memory_space<vmem>>, vector<8x128x2xbf16> loc(#loc245)
      %260 = tpu.load %214[%c0, %c360, %c0] sublanes [true, true, true, true, false, false, false, false] sublane_stride 1 : memref<1x512x128xbf16, #tpu.memory_space<vmem>>, vector<8x128x2xbf16> loc(#loc245)
      %261 = tpu.load %214[%c0, %c368, %c0] sublanes [true, true, true, true, false, false, false, false] sublane_stride 1 : memref<1x512x128xbf16, #tpu.memory_space<vmem>>, vector<8x128x2xbf16> loc(#loc245)
      %262 = tpu.load %214[%c0, %c376, %c0] sublanes [true, true, true, true, false, false, false, false] sublane_stride 1 : memref<1x512x128xbf16, #tpu.memory_space<vmem>>, vector<8x128x2xbf16> loc(#loc245)
      %263 = tpu.load %214[%c0, %c384, %c0] sublanes [true, true, true, true, false, false, false, false] sublane_stride 1 : memref<1x512x128xbf16, #tpu.memory_space<vmem>>, vector<8x128x2xbf16> loc(#loc245)
      %264 = tpu.load %214[%c0, %c392, %c0] sublanes [true, true, true, true, false, false, false, false] sublane_stride 1 : memref<1x512x128xbf16, #tpu.memory_space<vmem>>, vector<8x128x2xbf16> loc(#loc245)
      %265 = tpu.load %214[%c0, %c400, %c0] sublanes [true, true, true, true, false, false, false, false] sublane_stride 1 : memref<1x512x128xbf16, #tpu.memory_space<vmem>>, vector<8x128x2xbf16> loc(#loc245)
      %266 = tpu.load %214[%c0, %c408, %c0] sublanes [true, true, true, true, false, false, false, false] sublane_stride 1 : memref<1x512x128xbf16, #tpu.memory_space<vmem>>, vector<8x128x2xbf16> loc(#loc245)
      %267 = tpu.load %214[%c0, %c416, %c0] sublanes [true, true, true, true, false, false, false, false] sublane_stride 1 : memref<1x512x128xbf16, #tpu.memory_space<vmem>>, vector<8x128x2xbf16> loc(#loc245)
      %268 = tpu.load %214[%c0, %c424, %c0] sublanes [true, true, true, true, false, false, false, false] sublane_stride 1 : memref<1x512x128xbf16, #tpu.memory_space<vmem>>, vector<8x128x2xbf16> loc(#loc245)
      %269 = tpu.load %214[%c0, %c432, %c0] sublanes [true, true, true, true, false, false, false, false] sublane_stride 1 : memref<1x512x128xbf16, #tpu.memory_space<vmem>>, vector<8x128x2xbf16> loc(#loc245)
      %270 = tpu.load %214[%c0, %c440, %c0] sublanes [true, true, true, true, false, false, false, false] sublane_stride 1 : memref<1x512x128xbf16, #tpu.memory_space<vmem>>, vector<8x128x2xbf16> loc(#loc245)
      %271 = tpu.load %214[%c0, %c448, %c0] sublanes [true, true, true, true, false, false, false, false] sublane_stride 1 : memref<1x512x128xbf16, #tpu.memory_space<vmem>>, vector<8x128x2xbf16> loc(#loc245)
      %272 = tpu.load %214[%c0, %c456, %c0] sublanes [true, true, true, true, false, false, false, false] sublane_stride 1 : memref<1x512x128xbf16, #tpu.memory_space<vmem>>, vector<8x128x2xbf16> loc(#loc245)
      %273 = tpu.load %214[%c0, %c464, %c0] sublanes [true, true, true, true, false, false, false, false] sublane_stride 1 : memref<1x512x128xbf16, #tpu.memory_space<vmem>>, vector<8x128x2xbf16> loc(#loc245)
      %274 = tpu.load %214[%c0, %c472, %c0] sublanes [true, true, true, true, false, false, false, false] sublane_stride 1 : memref<1x512x128xbf16, #tpu.memory_space<vmem>>, vector<8x128x2xbf16> loc(#loc245)
      %275 = tpu.load %214[%c0, %c480, %c0] sublanes [true, true, true, true, false, false, false, false] sublane_stride 1 : memref<1x512x128xbf16, #tpu.memory_space<vmem>>, vector<8x128x2xbf16> loc(#loc245)
      %276 = tpu.load %214[%c0, %c488, %c0] sublanes [true, true, true, true, false, false, false, false] sublane_stride 1 : memref<1x512x128xbf16, #tpu.memory_space<vmem>>, vector<8x128x2xbf16> loc(#loc245)
      %277 = tpu.load %214[%c0, %c496, %c0] sublanes [true, true, true, true, false, false, false, false] sublane_stride 1 : memref<1x512x128xbf16, #tpu.memory_space<vmem>>, vector<8x128x2xbf16> loc(#loc245)
      %278 = tpu.load %214[%c0, %c504, %c0] sublanes [true, true, true, true, false, false, false, false] sublane_stride 1 : memref<1x512x128xbf16, #tpu.memory_space<vmem>>, vector<8x128x2xbf16> loc(#loc245)
      %279 = tpu.unpack_subelements %149, 0 {pack_format = #tpu.pack_format<compressed>} : vector<8x128x2xbf16> -> vector<8x128xf32> loc(#loc244)
      %280 = tpu.unpack_subelements %150, 0 {pack_format = #tpu.pack_format<compressed>} : vector<8x128x2xbf16> -> vector<8x128xf32> loc(#loc244)
      %281 = tpu.pack_subelements %279, %280 {pack_format = #tpu.pack_format<compressed>, positions = array<i32: 0, 1>} : vector<8x128xf32>, vector<8x128xf32> -> vector<8x128x2xbf16> loc(#loc244)
      %282 = tpu.unpack_subelements %151, 0 {pack_format = #tpu.pack_format<compressed>} : vector<8x128x2xbf16> -> vector<8x128xf32> loc(#loc244)
      %283 = tpu.unpack_subelements %152, 0 {pack_format = #tpu.pack_format<compressed>} : vector<8x128x2xbf16> -> vector<8x128xf32> loc(#loc244)
      %284 = tpu.pack_subelements %282, %283 {pack_format = #tpu.pack_format<compressed>, positions = array<i32: 0, 1>} : vector<8x128xf32>, vector<8x128xf32> -> vector<8x128x2xbf16> loc(#loc244)
      %285 = tpu.unpack_subelements %153, 0 {pack_format = #tpu.pack_format<compressed>} : vector<8x128x2xbf16> -> vector<8x128xf32> loc(#loc244)
      %286 = tpu.unpack_subelements %154, 0 {pack_format = #tpu.pack_format<compressed>} : vector<8x128x2xbf16> -> vector<8x128xf32> loc(#loc244)
      %287 = tpu.pack_subelements %285, %286 {pack_format = #tpu.pack_format<compressed>, positions = array<i32: 0, 1>} : vector<8x128xf32>, vector<8x128xf32> -> vector<8x128x2xbf16> loc(#loc244)
      %288 = tpu.unpack_subelements %155, 0 {pack_format = #tpu.pack_format<compressed>} : vector<8x128x2xbf16> -> vector<8x128xf32> loc(#loc244)
      %289 = tpu.unpack_subelements %156, 0 {pack_format = #tpu.pack_format<compressed>} : vector<8x128x2xbf16> -> vector<8x128xf32> loc(#loc244)
      %290 = tpu.pack_subelements %288, %289 {pack_format = #tpu.pack_format<compressed>, positions = array<i32: 0, 1>} : vector<8x128xf32>, vector<8x128xf32> -> vector<8x128x2xbf16> loc(#loc244)
      %291 = tpu.unpack_subelements %157, 0 {pack_format = #tpu.pack_format<compressed>} : vector<8x128x2xbf16> -> vector<8x128xf32> loc(#loc244)
      %292 = tpu.unpack_subelements %158, 0 {pack_format = #tpu.pack_format<compressed>} : vector<8x128x2xbf16> -> vector<8x128xf32> loc(#loc244)
      %293 = tpu.pack_subelements %291, %292 {pack_format = #tpu.pack_format<compressed>, positions = array<i32: 0, 1>} : vector<8x128xf32>, vector<8x128xf32> -> vector<8x128x2xbf16> loc(#loc244)
      %294 = tpu.unpack_subelements %159, 0 {pack_format = #tpu.pack_format<compressed>} : vector<8x128x2xbf16> -> vector<8x128xf32> loc(#loc244)
      %295 = tpu.unpack_subelements %160, 0 {pack_format = #tpu.pack_format<compressed>} : vector<8x128x2xbf16> -> vector<8x128xf32> loc(#loc244)
      %296 = tpu.pack_subelements %294, %295 {pack_format = #tpu.pack_format<compressed>, positions = array<i32: 0, 1>} : vector<8x128xf32>, vector<8x128xf32> -> vector<8x128x2xbf16> loc(#loc244)
      %297 = tpu.unpack_subelements %161, 0 {pack_format = #tpu.pack_format<compressed>} : vector<8x128x2xbf16> -> vector<8x128xf32> loc(#loc244)
      %298 = tpu.unpack_subelements %162, 0 {pack_format = #tpu.pack_format<compressed>} : vector<8x128x2xbf16> -> vector<8x128xf32> loc(#loc244)
      %299 = tpu.pack_subelements %297, %298 {pack_format = #tpu.pack_format<compressed>, positions = array<i32: 0, 1>} : vector<8x128xf32>, vector<8x128xf32> -> vector<8x128x2xbf16> loc(#loc244)
      %300 = tpu.unpack_subelements %163, 0 {pack_format = #tpu.pack_format<compressed>} : vector<8x128x2xbf16> -> vector<8x128xf32> loc(#loc244)
      %301 = tpu.unpack_subelements %164, 0 {pack_format = #tpu.pack_format<compressed>} : vector<8x128x2xbf16> -> vector<8x128xf32> loc(#loc244)
      %302 = tpu.pack_subelements %300, %301 {pack_format = #tpu.pack_format<compressed>, positions = array<i32: 0, 1>} : vector<8x128xf32>, vector<8x128xf32> -> vector<8x128x2xbf16> loc(#loc244)
      %303 = tpu.unpack_subelements %165, 0 {pack_format = #tpu.pack_format<compressed>} : vector<8x128x2xbf16> -> vector<8x128xf32> loc(#loc244)
      %304 = tpu.unpack_subelements %166, 0 {pack_format = #tpu.pack_format<compressed>} : vector<8x128x2xbf16> -> vector<8x128xf32> loc(#loc244)
      %305 = tpu.pack_subelements %303, %304 {pack_format = #tpu.pack_format<compressed>, positions = array<i32: 0, 1>} : vector<8x128xf32>, vector<8x128xf32> -> vector<8x128x2xbf16> loc(#loc244)
      %306 = tpu.unpack_subelements %167, 0 {pack_format = #tpu.pack_format<compressed>} : vector<8x128x2xbf16> -> vector<8x128xf32> loc(#loc244)
      %307 = tpu.unpack_subelements %168, 0 {pack_format = #tpu.pack_format<compressed>} : vector<8x128x2xbf16> -> vector<8x128xf32> loc(#loc244)
      %308 = tpu.pack_subelements %306, %307 {pack_format = #tpu.pack_format<compressed>, positions = array<i32: 0, 1>} : vector<8x128xf32>, vector<8x128xf32> -> vector<8x128x2xbf16> loc(#loc244)
      %309 = tpu.unpack_subelements %169, 0 {pack_format = #tpu.pack_format<compressed>} : vector<8x128x2xbf16> -> vector<8x128xf32> loc(#loc244)
      %310 = tpu.unpack_subelements %170, 0 {pack_format = #tpu.pack_format<compressed>} : vector<8x128x2xbf16> -> vector<8x128xf32> loc(#loc244)
      %311 = tpu.pack_subelements %309, %310 {pack_format = #tpu.pack_format<compressed>, positions = array<i32: 0, 1>} : vector<8x128xf32>, vector<8x128xf32> -> vector<8x128x2xbf16> loc(#loc244)
      %312 = tpu.unpack_subelements %171, 0 {pack_format = #tpu.pack_format<compressed>} : vector<8x128x2xbf16> -> vector<8x128xf32> loc(#loc244)
      %313 = tpu.unpack_subelements %172, 0 {pack_format = #tpu.pack_format<compressed>} : vector<8x128x2xbf16> -> vector<8x128xf32> loc(#loc244)
      %314 = tpu.pack_subelements %312, %313 {pack_format = #tpu.pack_format<compressed>, positions = array<i32: 0, 1>} : vector<8x128xf32>, vector<8x128xf32> -> vector<8x128x2xbf16> loc(#loc244)
      %315 = tpu.unpack_subelements %173, 0 {pack_format = #tpu.pack_format<compressed>} : vector<8x128x2xbf16> -> vector<8x128xf32> loc(#loc244)
      %316 = tpu.unpack_subelements %174, 0 {pack_format = #tpu.pack_format<compressed>} : vector<8x128x2xbf16> -> vector<8x128xf32> loc(#loc244)
      %317 = tpu.pack_subelements %315, %316 {pack_format = #tpu.pack_format<compressed>, positions = array<i32: 0, 1>} : vector<8x128xf32>, vector<8x128xf32> -> vector<8x128x2xbf16> loc(#loc244)
      %318 = tpu.unpack_subelements %175, 0 {pack_format = #tpu.pack_format<compressed>} : vector<8x128x2xbf16> -> vector<8x128xf32> loc(#loc244)
      %319 = tpu.unpack_subelements %176, 0 {pack_format = #tpu.pack_format<compressed>} : vector<8x128x2xbf16> -> vector<8x128xf32> loc(#loc244)
      %320 = tpu.pack_subelements %318, %319 {pack_format = #tpu.pack_format<compressed>, positions = array<i32: 0, 1>} : vector<8x128xf32>, vector<8x128xf32> -> vector<8x128x2xbf16> loc(#loc244)
      %321 = tpu.unpack_subelements %177, 0 {pack_format = #tpu.pack_format<compressed>} : vector<8x128x2xbf16> -> vector<8x128xf32> loc(#loc244)
      %322 = tpu.unpack_subelements %178, 0 {pack_format = #tpu.pack_format<compressed>} : vector<8x128x2xbf16> -> vector<8x128xf32> loc(#loc244)
      %323 = tpu.pack_subelements %321, %322 {pack_format = #tpu.pack_format<compressed>, positions = array<i32: 0, 1>} : vector<8x128xf32>, vector<8x128xf32> -> vector<8x128x2xbf16> loc(#loc244)
      %324 = tpu.unpack_subelements %179, 0 {pack_format = #tpu.pack_format<compressed>} : vector<8x128x2xbf16> -> vector<8x128xf32> loc(#loc244)
      %325 = tpu.unpack_subelements %180, 0 {pack_format = #tpu.pack_format<compressed>} : vector<8x128x2xbf16> -> vector<8x128xf32> loc(#loc244)
      %326 = tpu.pack_subelements %324, %325 {pack_format = #tpu.pack_format<compressed>, positions = array<i32: 0, 1>} : vector<8x128xf32>, vector<8x128xf32> -> vector<8x128x2xbf16> loc(#loc244)
      %327 = tpu.unpack_subelements %181, 0 {pack_format = #tpu.pack_format<compressed>} : vector<8x128x2xbf16> -> vector<8x128xf32> loc(#loc244)
      %328 = tpu.unpack_subelements %182, 0 {pack_format = #tpu.pack_format<compressed>} : vector<8x128x2xbf16> -> vector<8x128xf32> loc(#loc244)
      %329 = tpu.pack_subelements %327, %328 {pack_format = #tpu.pack_format<compressed>, positions = array<i32: 0, 1>} : vector<8x128xf32>, vector<8x128xf32> -> vector<8x128x2xbf16> loc(#loc244)
      %330 = tpu.unpack_subelements %183, 0 {pack_format = #tpu.pack_format<compressed>} : vector<8x128x2xbf16> -> vector<8x128xf32> loc(#loc244)
      %331 = tpu.unpack_subelements %184, 0 {pack_format = #tpu.pack_format<compressed>} : vector<8x128x2xbf16> -> vector<8x128xf32> loc(#loc244)
      %332 = tpu.pack_subelements %330, %331 {pack_format = #tpu.pack_format<compressed>, positions = array<i32: 0, 1>} : vector<8x128xf32>, vector<8x128xf32> -> vector<8x128x2xbf16> loc(#loc244)
      %333 = tpu.unpack_subelements %185, 0 {pack_format = #tpu.pack_format<compressed>} : vector<8x128x2xbf16> -> vector<8x128xf32> loc(#loc244)
      %334 = tpu.unpack_subelements %186, 0 {pack_format = #tpu.pack_format<compressed>} : vector<8x128x2xbf16> -> vector<8x128xf32> loc(#loc244)
      %335 = tpu.pack_subelements %333, %334 {pack_format = #tpu.pack_format<compressed>, positions = array<i32: 0, 1>} : vector<8x128xf32>, vector<8x128xf32> -> vector<8x128x2xbf16> loc(#loc244)
      %336 = tpu.unpack_subelements %187, 0 {pack_format = #tpu.pack_format<compressed>} : vector<8x128x2xbf16> -> vector<8x128xf32> loc(#loc244)
      %337 = tpu.unpack_subelements %188, 0 {pack_format = #tpu.pack_format<compressed>} : vector<8x128x2xbf16> -> vector<8x128xf32> loc(#loc244)
      %338 = tpu.pack_subelements %336, %337 {pack_format = #tpu.pack_format<compressed>, positions = array<i32: 0, 1>} : vector<8x128xf32>, vector<8x128xf32> -> vector<8x128x2xbf16> loc(#loc244)
      %339 = tpu.unpack_subelements %189, 0 {pack_format = #tpu.pack_format<compressed>} : vector<8x128x2xbf16> -> vector<8x128xf32> loc(#loc244)
      %340 = tpu.unpack_subelements %190, 0 {pack_format = #tpu.pack_format<compressed>} : vector<8x128x2xbf16> -> vector<8x128xf32> loc(#loc244)
      %341 = tpu.pack_subelements %339, %340 {pack_format = #tpu.pack_format<compressed>, positions = array<i32: 0, 1>} : vector<8x128xf32>, vector<8x128xf32> -> vector<8x128x2xbf16> loc(#loc244)
      %342 = tpu.unpack_subelements %191, 0 {pack_format = #tpu.pack_format<compressed>} : vector<8x128x2xbf16> -> vector<8x128xf32> loc(#loc244)
      %343 = tpu.unpack_subelements %192, 0 {pack_format = #tpu.pack_format<compressed>} : vector<8x128x2xbf16> -> vector<8x128xf32> loc(#loc244)
      %344 = tpu.pack_subelements %342, %343 {pack_format = #tpu.pack_format<compressed>, positions = array<i32: 0, 1>} : vector<8x128xf32>, vector<8x128xf32> -> vector<8x128x2xbf16> loc(#loc244)
      %345 = tpu.unpack_subelements %193, 0 {pack_format = #tpu.pack_format<compressed>} : vector<8x128x2xbf16> -> vector<8x128xf32> loc(#loc244)
      %346 = tpu.unpack_subelements %194, 0 {pack_format = #tpu.pack_format<compressed>} : vector<8x128x2xbf16> -> vector<8x128xf32> loc(#loc244)
      %347 = tpu.pack_subelements %345, %346 {pack_format = #tpu.pack_format<compressed>, positions = array<i32: 0, 1>} : vector<8x128xf32>, vector<8x128xf32> -> vector<8x128x2xbf16> loc(#loc244)
      %348 = tpu.unpack_subelements %195, 0 {pack_format = #tpu.pack_format<compressed>} : vector<8x128x2xbf16> -> vector<8x128xf32> loc(#loc244)
      %349 = tpu.unpack_subelements %196, 0 {pack_format = #tpu.pack_format<compressed>} : vector<8x128x2xbf16> -> vector<8x128xf32> loc(#loc244)
      %350 = tpu.pack_subelements %348, %349 {pack_format = #tpu.pack_format<compressed>, positions = array<i32: 0, 1>} : vector<8x128xf32>, vector<8x128xf32> -> vector<8x128x2xbf16> loc(#loc244)
      %351 = tpu.unpack_subelements %197, 0 {pack_format = #tpu.pack_format<compressed>} : vector<8x128x2xbf16> -> vector<8x128xf32> loc(#loc244)
      %352 = tpu.unpack_subelements %198, 0 {pack_format = #tpu.pack_format<compressed>} : vector<8x128x2xbf16> -> vector<8x128xf32> loc(#loc244)
      %353 = tpu.pack_subelements %351, %352 {pack_format = #tpu.pack_format<compressed>, positions = array<i32: 0, 1>} : vector<8x128xf32>, vector<8x128xf32> -> vector<8x128x2xbf16> loc(#loc244)
      %354 = tpu.unpack_subelements %199, 0 {pack_format = #tpu.pack_format<compressed>} : vector<8x128x2xbf16> -> vector<8x128xf32> loc(#loc244)
      %355 = tpu.unpack_subelements %200, 0 {pack_format = #tpu.pack_format<compressed>} : vector<8x128x2xbf16> -> vector<8x128xf32> loc(#loc244)
      %356 = tpu.pack_subelements %354, %355 {pack_format = #tpu.pack_format<compressed>, positions = array<i32: 0, 1>} : vector<8x128xf32>, vector<8x128xf32> -> vector<8x128x2xbf16> loc(#loc244)
      %357 = tpu.unpack_subelements %201, 0 {pack_format = #tpu.pack_format<compressed>} : vector<8x128x2xbf16> -> vector<8x128xf32> loc(#loc244)
      %358 = tpu.unpack_subelements %202, 0 {pack_format = #tpu.pack_format<compressed>} : vector<8x128x2xbf16> -> vector<8x128xf32> loc(#loc244)
      %359 = tpu.pack_subelements %357, %358 {pack_format = #tpu.pack_format<compressed>, positions = array<i32: 0, 1>} : vector<8x128xf32>, vector<8x128xf32> -> vector<8x128x2xbf16> loc(#loc244)
      %360 = tpu.unpack_subelements %203, 0 {pack_format = #tpu.pack_format<compressed>} : vector<8x128x2xbf16> -> vector<8x128xf32> loc(#loc244)
      %361 = tpu.unpack_subelements %204, 0 {pack_format = #tpu.pack_format<compressed>} : vector<8x128x2xbf16> -> vector<8x128xf32> loc(#loc244)
      %362 = tpu.pack_subelements %360, %361 {pack_format = #tpu.pack_format<compressed>, positions = array<i32: 0, 1>} : vector<8x128xf32>, vector<8x128xf32> -> vector<8x128x2xbf16> loc(#loc244)
      %363 = tpu.unpack_subelements %205, 0 {pack_format = #tpu.pack_format<compressed>} : vector<8x128x2xbf16> -> vector<8x128xf32> loc(#loc244)
      %364 = tpu.unpack_subelements %206, 0 {pack_format = #tpu.pack_format<compressed>} : vector<8x128x2xbf16> -> vector<8x128xf32> loc(#loc244)
      %365 = tpu.pack_subelements %363, %364 {pack_format = #tpu.pack_format<compressed>, positions = array<i32: 0, 1>} : vector<8x128xf32>, vector<8x128xf32> -> vector<8x128x2xbf16> loc(#loc244)
      %366 = tpu.unpack_subelements %207, 0 {pack_format = #tpu.pack_format<compressed>} : vector<8x128x2xbf16> -> vector<8x128xf32> loc(#loc244)
      %367 = tpu.unpack_subelements %208, 0 {pack_format = #tpu.pack_format<compressed>} : vector<8x128x2xbf16> -> vector<8x128xf32> loc(#loc244)
      %368 = tpu.pack_subelements %366, %367 {pack_format = #tpu.pack_format<compressed>, positions = array<i32: 0, 1>} : vector<8x128xf32>, vector<8x128xf32> -> vector<8x128x2xbf16> loc(#loc244)
      %369 = tpu.unpack_subelements %209, 0 {pack_format = #tpu.pack_format<compressed>} : vector<8x128x2xbf16> -> vector<8x128xf32> loc(#loc244)
      %370 = tpu.unpack_subelements %210, 0 {pack_format = #tpu.pack_format<compressed>} : vector<8x128x2xbf16> -> vector<8x128xf32> loc(#loc244)
      %371 = tpu.pack_subelements %369, %370 {pack_format = #tpu.pack_format<compressed>, positions = array<i32: 0, 1>} : vector<8x128xf32>, vector<8x128xf32> -> vector<8x128x2xbf16> loc(#loc244)
      %372 = tpu.unpack_subelements %211, 0 {pack_format = #tpu.pack_format<compressed>} : vector<8x128x2xbf16> -> vector<8x128xf32> loc(#loc244)
      %373 = tpu.unpack_subelements %212, 0 {pack_format = #tpu.pack_format<compressed>} : vector<8x128x2xbf16> -> vector<8x128xf32> loc(#loc244)
      %374 = tpu.pack_subelements %372, %373 {pack_format = #tpu.pack_format<compressed>, positions = array<i32: 0, 1>} : vector<8x128xf32>, vector<8x128xf32> -> vector<8x128x2xbf16> loc(#loc244)
      %375 = tpu.unpack_subelements %215, 0 {pack_format = #tpu.pack_format<compressed>} : vector<8x128x2xbf16> -> vector<8x128xf32> loc(#loc245)
      %376 = tpu.unpack_subelements %216, 0 {pack_format = #tpu.pack_format<compressed>} : vector<8x128x2xbf16> -> vector<8x128xf32> loc(#loc245)
      %377 = tpu.pack_subelements %375, %376 {pack_format = #tpu.pack_format<compressed>, positions = array<i32: 0, 1>} : vector<8x128xf32>, vector<8x128xf32> -> vector<8x128x2xbf16> loc(#loc245)
      %378 = tpu.unpack_subelements %217, 0 {pack_format = #tpu.pack_format<compressed>} : vector<8x128x2xbf16> -> vector<8x128xf32> loc(#loc245)
      %379 = tpu.unpack_subelements %218, 0 {pack_format = #tpu.pack_format<compressed>} : vector<8x128x2xbf16> -> vector<8x128xf32> loc(#loc245)
      %380 = tpu.pack_subelements %378, %379 {pack_format = #tpu.pack_format<compressed>, positions = array<i32: 0, 1>} : vector<8x128xf32>, vector<8x128xf32> -> vector<8x128x2xbf16> loc(#loc245)
      %381 = tpu.unpack_subelements %219, 0 {pack_format = #tpu.pack_format<compressed>} : vector<8x128x2xbf16> -> vector<8x128xf32> loc(#loc245)
      %382 = tpu.unpack_subelements %220, 0 {pack_format = #tpu.pack_format<compressed>} : vector<8x128x2xbf16> -> vector<8x128xf32> loc(#loc245)
      %383 = tpu.pack_subelements %381, %382 {pack_format = #tpu.pack_format<compressed>, positions = array<i32: 0, 1>} : vector<8x128xf32>, vector<8x128xf32> -> vector<8x128x2xbf16> loc(#loc245)
      %384 = tpu.unpack_subelements %221, 0 {pack_format = #tpu.pack_format<compressed>} : vector<8x128x2xbf16> -> vector<8x128xf32> loc(#loc245)
      %385 = tpu.unpack_subelements %222, 0 {pack_format = #tpu.pack_format<compressed>} : vector<8x128x2xbf16> -> vector<8x128xf32> loc(#loc245)
      %386 = tpu.pack_subelements %384, %385 {pack_format = #tpu.pack_format<compressed>, positions = array<i32: 0, 1>} : vector<8x128xf32>, vector<8x128xf32> -> vector<8x128x2xbf16> loc(#loc245)
      %387 = tpu.unpack_subelements %223, 0 {pack_format = #tpu.pack_format<compressed>} : vector<8x128x2xbf16> -> vector<8x128xf32> loc(#loc245)
      %388 = tpu.unpack_subelements %224, 0 {pack_format = #tpu.pack_format<compressed>} : vector<8x128x2xbf16> -> vector<8x128xf32> loc(#loc245)
      %389 = tpu.pack_subelements %387, %388 {pack_format = #tpu.pack_format<compressed>, positions = array<i32: 0, 1>} : vector<8x128xf32>, vector<8x128xf32> -> vector<8x128x2xbf16> loc(#loc245)
      %390 = tpu.unpack_subelements %225, 0 {pack_format = #tpu.pack_format<compressed>} : vector<8x128x2xbf16> -> vector<8x128xf32> loc(#loc245)
      %391 = tpu.unpack_subelements %226, 0 {pack_format = #tpu.pack_format<compressed>} : vector<8x128x2xbf16> -> vector<8x128xf32> loc(#loc245)
      %392 = tpu.pack_subelements %390, %391 {pack_format = #tpu.pack_format<compressed>, positions = array<i32: 0, 1>} : vector<8x128xf32>, vector<8x128xf32> -> vector<8x128x2xbf16> loc(#loc245)
      %393 = tpu.unpack_subelements %227, 0 {pack_format = #tpu.pack_format<compressed>} : vector<8x128x2xbf16> -> vector<8x128xf32> loc(#loc245)
      %394 = tpu.unpack_subelements %228, 0 {pack_format = #tpu.pack_format<compressed>} : vector<8x128x2xbf16> -> vector<8x128xf32> loc(#loc245)
      %395 = tpu.pack_subelements %393, %394 {pack_format = #tpu.pack_format<compressed>, positions = array<i32: 0, 1>} : vector<8x128xf32>, vector<8x128xf32> -> vector<8x128x2xbf16> loc(#loc245)
      %396 = tpu.unpack_subelements %229, 0 {pack_format = #tpu.pack_format<compressed>} : vector<8x128x2xbf16> -> vector<8x128xf32> loc(#loc245)
      %397 = tpu.unpack_subelements %230, 0 {pack_format = #tpu.pack_format<compressed>} : vector<8x128x2xbf16> -> vector<8x128xf32> loc(#loc245)
      %398 = tpu.pack_subelements %396, %397 {pack_format = #tpu.pack_format<compressed>, positions = array<i32: 0, 1>} : vector<8x128xf32>, vector<8x128xf32> -> vector<8x128x2xbf16> loc(#loc245)
      %399 = tpu.unpack_subelements %231, 0 {pack_format = #tpu.pack_format<compressed>} : vector<8x128x2xbf16> -> vector<8x128xf32> loc(#loc245)
      %400 = tpu.unpack_subelements %232, 0 {pack_format = #tpu.pack_format<compressed>} : vector<8x128x2xbf16> -> vector<8x128xf32> loc(#loc245)
      %401 = tpu.pack_subelements %399, %400 {pack_format = #tpu.pack_format<compressed>, positions = array<i32: 0, 1>} : vector<8x128xf32>, vector<8x128xf32> -> vector<8x128x2xbf16> loc(#loc245)
      %402 = tpu.unpack_subelements %233, 0 {pack_format = #tpu.pack_format<compressed>} : vector<8x128x2xbf16> -> vector<8x128xf32> loc(#loc245)
      %403 = tpu.unpack_subelements %234, 0 {pack_format = #tpu.pack_format<compressed>} : vector<8x128x2xbf16> -> vector<8x128xf32> loc(#loc245)
      %404 = tpu.pack_subelements %402, %403 {pack_format = #tpu.pack_format<compressed>, positions = array<i32: 0, 1>} : vector<8x128xf32>, vector<8x128xf32> -> vector<8x128x2xbf16> loc(#loc245)
      %405 = tpu.unpack_subelements %235, 0 {pack_format = #tpu.pack_format<compressed>} : vector<8x128x2xbf16> -> vector<8x128xf32> loc(#loc245)
      %406 = tpu.unpack_subelements %236, 0 {pack_format = #tpu.pack_format<compressed>} : vector<8x128x2xbf16> -> vector<8x128xf32> loc(#loc245)
      %407 = tpu.pack_subelements %405, %406 {pack_format = #tpu.pack_format<compressed>, positions = array<i32: 0, 1>} : vector<8x128xf32>, vector<8x128xf32> -> vector<8x128x2xbf16> loc(#loc245)
      %408 = tpu.unpack_subelements %237, 0 {pack_format = #tpu.pack_format<compressed>} : vector<8x128x2xbf16> -> vector<8x128xf32> loc(#loc245)
      %409 = tpu.unpack_subelements %238, 0 {pack_format = #tpu.pack_format<compressed>} : vector<8x128x2xbf16> -> vector<8x128xf32> loc(#loc245)
      %410 = tpu.pack_subelements %408, %409 {pack_format = #tpu.pack_format<compressed>, positions = array<i32: 0, 1>} : vector<8x128xf32>, vector<8x128xf32> -> vector<8x128x2xbf16> loc(#loc245)
      %411 = tpu.unpack_subelements %239, 0 {pack_format = #tpu.pack_format<compressed>} : vector<8x128x2xbf16> -> vector<8x128xf32> loc(#loc245)
      %412 = tpu.unpack_subelements %240, 0 {pack_format = #tpu.pack_format<compressed>} : vector<8x128x2xbf16> -> vector<8x128xf32> loc(#loc245)
      %413 = tpu.pack_subelements %411, %412 {pack_format = #tpu.pack_format<compressed>, positions = array<i32: 0, 1>} : vector<8x128xf32>, vector<8x128xf32> -> vector<8x128x2xbf16> loc(#loc245)
      %414 = tpu.unpack_subelements %241, 0 {pack_format = #tpu.pack_format<compressed>} : vector<8x128x2xbf16> -> vector<8x128xf32> loc(#loc245)
      %415 = tpu.unpack_subelements %242, 0 {pack_format = #tpu.pack_format<compressed>} : vector<8x128x2xbf16> -> vector<8x128xf32> loc(#loc245)
      %416 = tpu.pack_subelements %414, %415 {pack_format = #tpu.pack_format<compressed>, positions = array<i32: 0, 1>} : vector<8x128xf32>, vector<8x128xf32> -> vector<8x128x2xbf16> loc(#loc245)
      %417 = tpu.unpack_subelements %243, 0 {pack_format = #tpu.pack_format<compressed>} : vector<8x128x2xbf16> -> vector<8x128xf32> loc(#loc245)
      %418 = tpu.unpack_subelements %244, 0 {pack_format = #tpu.pack_format<compressed>} : vector<8x128x2xbf16> -> vector<8x128xf32> loc(#loc245)
      %419 = tpu.pack_subelements %417, %418 {pack_format = #tpu.pack_format<compressed>, positions = array<i32: 0, 1>} : vector<8x128xf32>, vector<8x128xf32> -> vector<8x128x2xbf16> loc(#loc245)
      %420 = tpu.unpack_subelements %245, 0 {pack_format = #tpu.pack_format<compressed>} : vector<8x128x2xbf16> -> vector<8x128xf32> loc(#loc245)
      %421 = tpu.unpack_subelements %246, 0 {pack_format = #tpu.pack_format<compressed>} : vector<8x128x2xbf16> -> vector<8x128xf32> loc(#loc245)
      %422 = tpu.pack_subelements %420, %421 {pack_format = #tpu.pack_format<compressed>, positions = array<i32: 0, 1>} : vector<8x128xf32>, vector<8x128xf32> -> vector<8x128x2xbf16> loc(#loc245)
      %423 = tpu.unpack_subelements %247, 0 {pack_format = #tpu.pack_format<compressed>} : vector<8x128x2xbf16> -> vector<8x128xf32> loc(#loc245)
      %424 = tpu.unpack_subelements %248, 0 {pack_format = #tpu.pack_format<compressed>} : vector<8x128x2xbf16> -> vector<8x128xf32> loc(#loc245)
      %425 = tpu.pack_subelements %423, %424 {pack_format = #tpu.pack_format<compressed>, positions = array<i32: 0, 1>} : vector<8x128xf32>, vector<8x128xf32> -> vector<8x128x2xbf16> loc(#loc245)
      %426 = tpu.unpack_subelements %249, 0 {pack_format = #tpu.pack_format<compressed>} : vector<8x128x2xbf16> -> vector<8x128xf32> loc(#loc245)
      %427 = tpu.unpack_subelements %250, 0 {pack_format = #tpu.pack_format<compressed>} : vector<8x128x2xbf16> -> vector<8x128xf32> loc(#loc245)
      %428 = tpu.pack_subelements %426, %427 {pack_format = #tpu.pack_format<compressed>, positions = array<i32: 0, 1>} : vector<8x128xf32>, vector<8x128xf32> -> vector<8x128x2xbf16> loc(#loc245)
      %429 = tpu.unpack_subelements %251, 0 {pack_format = #tpu.pack_format<compressed>} : vector<8x128x2xbf16> -> vector<8x128xf32> loc(#loc245)
      %430 = tpu.unpack_subelements %252, 0 {pack_format = #tpu.pack_format<compressed>} : vector<8x128x2xbf16> -> vector<8x128xf32> loc(#loc245)
      %431 = tpu.pack_subelements %429, %430 {pack_format = #tpu.pack_format<compressed>, positions = array<i32: 0, 1>} : vector<8x128xf32>, vector<8x128xf32> -> vector<8x128x2xbf16> loc(#loc245)
      %432 = tpu.unpack_subelements %253, 0 {pack_format = #tpu.pack_format<compressed>} : vector<8x128x2xbf16> -> vector<8x128xf32> loc(#loc245)
      %433 = tpu.unpack_subelements %254, 0 {pack_format = #tpu.pack_format<compressed>} : vector<8x128x2xbf16> -> vector<8x128xf32> loc(#loc245)
      %434 = tpu.pack_subelements %432, %433 {pack_format = #tpu.pack_format<compressed>, positions = array<i32: 0, 1>} : vector<8x128xf32>, vector<8x128xf32> -> vector<8x128x2xbf16> loc(#loc245)
      %435 = tpu.unpack_subelements %255, 0 {pack_format = #tpu.pack_format<compressed>} : vector<8x128x2xbf16> -> vector<8x128xf32> loc(#loc245)
      %436 = tpu.unpack_subelements %256, 0 {pack_format = #tpu.pack_format<compressed>} : vector<8x128x2xbf16> -> vector<8x128xf32> loc(#loc245)
      %437 = tpu.pack_subelements %435, %436 {pack_format = #tpu.pack_format<compressed>, positions = array<i32: 0, 1>} : vector<8x128xf32>, vector<8x128xf32> -> vector<8x128x2xbf16> loc(#loc245)
      %438 = tpu.unpack_subelements %257, 0 {pack_format = #tpu.pack_format<compressed>} : vector<8x128x2xbf16> -> vector<8x128xf32> loc(#loc245)
      %439 = tpu.unpack_subelements %258, 0 {pack_format = #tpu.pack_format<compressed>} : vector<8x128x2xbf16> -> vector<8x128xf32> loc(#loc245)
      %440 = tpu.pack_subelements %438, %439 {pack_format = #tpu.pack_format<compressed>, positions = array<i32: 0, 1>} : vector<8x128xf32>, vector<8x128xf32> -> vector<8x128x2xbf16> loc(#loc245)
      %441 = tpu.unpack_subelements %259, 0 {pack_format = #tpu.pack_format<compressed>} : vector<8x128x2xbf16> -> vector<8x128xf32> loc(#loc245)
      %442 = tpu.unpack_subelements %260, 0 {pack_format = #tpu.pack_format<compressed>} : vector<8x128x2xbf16> -> vector<8x128xf32> loc(#loc245)
      %443 = tpu.pack_subelements %441, %442 {pack_format = #tpu.pack_format<compressed>, positions = array<i32: 0, 1>} : vector<8x128xf32>, vector<8x128xf32> -> vector<8x128x2xbf16> loc(#loc245)
      %444 = tpu.unpack_subelements %261, 0 {pack_format = #tpu.pack_format<compressed>} : vector<8x128x2xbf16> -> vector<8x128xf32> loc(#loc245)
      %445 = tpu.unpack_subelements %262, 0 {pack_format = #tpu.pack_format<compressed>} : vector<8x128x2xbf16> -> vector<8x128xf32> loc(#loc245)
      %446 = tpu.pack_subelements %444, %445 {pack_format = #tpu.pack_format<compressed>, positions = array<i32: 0, 1>} : vector<8x128xf32>, vector<8x128xf32> -> vector<8x128x2xbf16> loc(#loc245)
      %447 = tpu.unpack_subelements %263, 0 {pack_format = #tpu.pack_format<compressed>} : vector<8x128x2xbf16> -> vector<8x128xf32> loc(#loc245)
      %448 = tpu.unpack_subelements %264, 0 {pack_format = #tpu.pack_format<compressed>} : vector<8x128x2xbf16> -> vector<8x128xf32> loc(#loc245)
      %449 = tpu.pack_subelements %447, %448 {pack_format = #tpu.pack_format<compressed>, positions = array<i32: 0, 1>} : vector<8x128xf32>, vector<8x128xf32> -> vector<8x128x2xbf16> loc(#loc245)
      %450 = tpu.unpack_subelements %265, 0 {pack_format = #tpu.pack_format<compressed>} : vector<8x128x2xbf16> -> vector<8x128xf32> loc(#loc245)
      %451 = tpu.unpack_subelements %266, 0 {pack_format = #tpu.pack_format<compressed>} : vector<8x128x2xbf16> -> vector<8x128xf32> loc(#loc245)
      %452 = tpu.pack_subelements %450, %451 {pack_format = #tpu.pack_format<compressed>, positions = array<i32: 0, 1>} : vector<8x128xf32>, vector<8x128xf32> -> vector<8x128x2xbf16> loc(#loc245)
      %453 = tpu.unpack_subelements %267, 0 {pack_format = #tpu.pack_format<compressed>} : vector<8x128x2xbf16> -> vector<8x128xf32> loc(#loc245)
      %454 = tpu.unpack_subelements %268, 0 {pack_format = #tpu.pack_format<compressed>} : vector<8x128x2xbf16> -> vector<8x128xf32> loc(#loc245)
      %455 = tpu.pack_subelements %453, %454 {pack_format = #tpu.pack_format<compressed>, positions = array<i32: 0, 1>} : vector<8x128xf32>, vector<8x128xf32> -> vector<8x128x2xbf16> loc(#loc245)
      %456 = tpu.unpack_subelements %269, 0 {pack_format = #tpu.pack_format<compressed>} : vector<8x128x2xbf16> -> vector<8x128xf32> loc(#loc245)
      %457 = tpu.unpack_subelements %270, 0 {pack_format = #tpu.pack_format<compressed>} : vector<8x128x2xbf16> -> vector<8x128xf32> loc(#loc245)
      %458 = tpu.pack_subelements %456, %457 {pack_format = #tpu.pack_format<compressed>, positions = array<i32: 0, 1>} : vector<8x128xf32>, vector<8x128xf32> -> vector<8x128x2xbf16> loc(#loc245)
      %459 = tpu.unpack_subelements %271, 0 {pack_format = #tpu.pack_format<compressed>} : vector<8x128x2xbf16> -> vector<8x128xf32> loc(#loc245)
      %460 = tpu.unpack_subelements %272, 0 {pack_format = #tpu.pack_format<compressed>} : vector<8x128x2xbf16> -> vector<8x128xf32> loc(#loc245)
      %461 = tpu.pack_subelements %459, %460 {pack_format = #tpu.pack_format<compressed>, positions = array<i32: 0, 1>} : vector<8x128xf32>, vector<8x128xf32> -> vector<8x128x2xbf16> loc(#loc245)
      %462 = tpu.unpack_subelements %273, 0 {pack_format = #tpu.pack_format<compressed>} : vector<8x128x2xbf16> -> vector<8x128xf32> loc(#loc245)
      %463 = tpu.unpack_subelements %274, 0 {pack_format = #tpu.pack_format<compressed>} : vector<8x128x2xbf16> -> vector<8x128xf32> loc(#loc245)
      %464 = tpu.pack_subelements %462, %463 {pack_format = #tpu.pack_format<compressed>, positions = array<i32: 0, 1>} : vector<8x128xf32>, vector<8x128xf32> -> vector<8x128x2xbf16> loc(#loc245)
      %465 = tpu.unpack_subelements %275, 0 {pack_format = #tpu.pack_format<compressed>} : vector<8x128x2xbf16> -> vector<8x128xf32> loc(#loc245)
      %466 = tpu.unpack_subelements %276, 0 {pack_format = #tpu.pack_format<compressed>} : vector<8x128x2xbf16> -> vector<8x128xf32> loc(#loc245)
      %467 = tpu.pack_subelements %465, %466 {pack_format = #tpu.pack_format<compressed>, positions = array<i32: 0, 1>} : vector<8x128xf32>, vector<8x128xf32> -> vector<8x128x2xbf16> loc(#loc245)
      %468 = tpu.unpack_subelements %277, 0 {pack_format = #tpu.pack_format<compressed>} : vector<8x128x2xbf16> -> vector<8x128xf32> loc(#loc245)
      %469 = tpu.unpack_subelements %278, 0 {pack_format = #tpu.pack_format<compressed>} : vector<8x128x2xbf16> -> vector<8x128xf32> loc(#loc245)
      %470 = tpu.pack_subelements %468, %469 {pack_format = #tpu.pack_format<compressed>, positions = array<i32: 0, 1>} : vector<8x128xf32>, vector<8x128xf32> -> vector<8x128x2xbf16> loc(#loc245)
      %471 = tpu.roll_vectors %281, %cst_2, %284, %cst_2, %287, %cst_2, %290, %cst_2, %293, %cst_2, %296, %cst_2, %299, %cst_2, %302, %cst_2, %305, %cst_2, %308, %cst_2, %311, %cst_2, %314, %cst_2, %317, %cst_2, %320, %cst_2, %323, %cst_2, %326, %cst_2, %329, %cst_2, %332, %cst_2, %335, %cst_2, %338, %cst_2, %341, %cst_2, %344, %cst_2, %347, %cst_2, %350, %cst_2, %353, %cst_2, %356, %cst_2, %359, %cst_2, %362, %cst_2, %365, %cst_2, %368, %cst_2, %371, %cst_2, %374, %cst_2 {out_layout = [#tpu.vpad<"16,{0,0},(16,128)">]} : vector<8x128x2xbf16>, vector<8x128x2xbf16>, vector<8x128x2xbf16>, vector<8x128x2xbf16>, vector<8x128x2xbf16>, vector<8x128x2xbf16>, vector<8x128x2xbf16>, vector<8x128x2xbf16>, vector<8x128x2xbf16>, vector<8x128x2xbf16>, vector<8x128x2xbf16>, vector<8x128x2xbf16>, vector<8x128x2xbf16>, vector<8x128x2xbf16>, vector<8x128x2xbf16>, vector<8x128x2xbf16>, vector<8x128x2xbf16>, vector<8x128x2xbf16>, vector<8x128x2xbf16>, vector<8x128x2xbf16>, vector<8x128x2xbf16>, vector<8x128x2xbf16>, vector<8x128x2xbf16>, vector<8x128x2xbf16>, vector<8x128x2xbf16>, vector<8x128x2xbf16>, vector<8x128x2xbf16>, vector<8x128x2xbf16>, vector<8x128x2xbf16>, vector<8x128x2xbf16>, vector<8x128x2xbf16>, vector<8x128x2xbf16>, vector<8x128x2xbf16>, vector<8x128x2xbf16>, vector<8x128x2xbf16>, vector<8x128x2xbf16>, vector<8x128x2xbf16>, vector<8x128x2xbf16>, vector<8x128x2xbf16>, vector<8x128x2xbf16>, vector<8x128x2xbf16>, vector<8x128x2xbf16>, vector<8x128x2xbf16>, vector<8x128x2xbf16>, vector<8x128x2xbf16>, vector<8x128x2xbf16>, vector<8x128x2xbf16>, vector<8x128x2xbf16>, vector<8x128x2xbf16>, vector<8x128x2xbf16>, vector<8x128x2xbf16>, vector<8x128x2xbf16>, vector<8x128x2xbf16>, vector<8x128x2xbf16>, vector<8x128x2xbf16>, vector<8x128x2xbf16>, vector<8x128x2xbf16>, vector<8x128x2xbf16>, vector<8x128x2xbf16>, vector<8x128x2xbf16>, vector<8x128x2xbf16>, vector<8x128x2xbf16>, vector<8x128x2xbf16>, vector<8x128x2xbf16> -> vector<512x256xbf16> loc(#loc246)
      %472 = tpu.roll_vectors %377, %cst_2, %380, %cst_2, %383, %cst_2, %386, %cst_2, %389, %cst_2, %392, %cst_2, %395, %cst_2, %398, %cst_2, %401, %cst_2, %404, %cst_2, %407, %cst_2, %410, %cst_2, %413, %cst_2, %416, %cst_2, %419, %cst_2, %422, %cst_2 {out_layout = [#tpu.vpad<"16,{0,0},(16,128)">]} : vector<8x128x2xbf16>, vector<8x128x2xbf16>, vector<8x128x2xbf16>, vector<8x128x2xbf16>, vector<8x128x2xbf16>, vector<8x128x2xbf16>, vector<8x128x2xbf16>, vector<8x128x2xbf16>, vector<8x128x2xbf16>, vector<8x128x2xbf16>, vector<8x128x2xbf16>, vector<8x128x2xbf16>, vector<8x128x2xbf16>, vector<8x128x2xbf16>, vector<8x128x2xbf16>, vector<8x128x2xbf16>, vector<8x128x2xbf16>, vector<8x128x2xbf16>, vector<8x128x2xbf16>, vector<8x128x2xbf16>, vector<8x128x2xbf16>, vector<8x128x2xbf16>, vector<8x128x2xbf16>, vector<8x128x2xbf16>, vector<8x128x2xbf16>, vector<8x128x2xbf16>, vector<8x128x2xbf16>, vector<8x128x2xbf16>, vector<8x128x2xbf16>, vector<8x128x2xbf16>, vector<8x128x2xbf16>, vector<8x128x2xbf16> -> vector<256x256xbf16> loc(#loc246)
      %473 = tpu.roll_vectors %cst_3, %cst_3, %cst_3, %cst_3, %cst_3, %cst_3, %cst_3, %cst_3, %cst_3, %cst_3, %cst_3, %cst_3, %cst_3, %cst_3, %cst_3, %cst_3, %cst_3, %cst_3, %cst_3, %cst_3, %cst_3, %cst_3, %cst_3, %cst_3, %cst_3, %cst_3, %cst_3, %cst_3, %cst_3, %cst_3, %cst_3, %cst_3, %cst_3, %cst_3, %cst_3, %cst_3, %cst_3, %cst_3, %cst_3, %cst_3, %cst_3, %cst_3, %cst_3, %cst_3, %cst_3, %cst_3, %cst_3, %cst_3, %cst_3, %cst_3, %cst_3, %cst_3, %cst_3, %cst_3, %cst_3, %cst_3, %cst_3, %cst_3, %cst_3, %cst_3, %cst_3, %cst_3, %cst_3, %cst_3, %cst_3, %cst_3, %cst_3, %cst_3, %cst_3, %cst_3, %cst_3, %cst_3, %cst_3, %cst_3, %cst_3, %cst_3, %cst_3, %cst_3, %cst_3, %cst_3, %cst_3, %cst_3, %cst_3, %cst_3, %cst_3, %cst_3, %cst_3, %cst_3, %cst_3, %cst_3, %cst_3, %cst_3, %cst_3, %cst_3, %cst_3, %cst_3, %cst_3, %cst_3, %cst_3, %cst_3, %cst_3, %cst_3, %cst_3, %cst_3, %cst_3, %cst_3, %cst_3, %cst_3, %cst_3, %cst_3, %cst_3, %cst_3, %cst_3, %cst_3, %cst_3, %cst_3, %cst_3, %cst_3, %cst_3, %cst_3, %cst_3, %cst_3, %cst_3, %cst_3, %cst_3, %cst_3, %cst_3, %cst_3 {out_layout = [#tpu.vpad<"32,{0,0},(8,128)">]} : vector<8x128xf32>, vector<8x128xf32>, vector<8x128xf32>, vector<8x128xf32>, vector<8x128xf32>, vector<8x128xf32>, vector<8x128xf32>, vector<8x128xf32>, vector<8x128xf32>, vector<8x128xf32>, vector<8x128xf32>, vector<8x128xf32>, vector<8x128xf32>, vector<8x128xf32>, vector<8x128xf32>, vector<8x128xf32>, vector<8x128xf32>, vector<8x128xf32>, vector<8x128xf32>, vector<8x128xf32>, vector<8x128xf32>, vector<8x128xf32>, vector<8x128xf32>, vector<8x128xf32>, vector<8x128xf32>, vector<8x128xf32>, vector<8x128xf32>, vector<8x128xf32>, vector<8x128xf32>, vector<8x128xf32>, vector<8x128xf32>, vector<8x128xf32>, vector<8x128xf32>, vector<8x128xf32>, vector<8x128xf32>, vector<8x128xf32>, vector<8x128xf32>, vector<8x128xf32>, vector<8x128xf32>, vector<8x128xf32>, vector<8x128xf32>, vector<8x128xf32>, vector<8x128xf32>, vector<8x128xf32>, vector<8x128xf32>, vector<8x128xf32>, vector<8x128xf32>, vector<8x128xf32>, vector<8x128xf32>, vector<8x128xf32>, vector<8x128xf32>, vector<8x128xf32>, vector<8x128xf32>, vector<8x128xf32>, vector<8x128xf32>, vector<8x128xf32>, vector<8x128xf32>, vector<8x128xf32>, vector<8x128xf32>, vector<8x128xf32>, vector<8x128xf32>, vector<8x128xf32>, vector<8x128xf32>, vector<8x128xf32>, vector<8x128xf32>, vector<8x128xf32>, vector<8x128xf32>, vector<8x128xf32>, vector<8x128xf32>, vector<8x128xf32>, vector<8x128xf32>, vector<8x128xf32>, vector<8x128xf32>, vector<8x128xf32>, vector<8x128xf32>, vector<8x128xf32>, vector<8x128xf32>, vector<8x128xf32>, vector<8x128xf32>, vector<8x128xf32>, vector<8x128xf32>, vector<8x128xf32>, vector<8x128xf32>, vector<8x128xf32>, vector<8x128xf32>, vector<8x128xf32>, vector<8x128xf32>, vector<8x128xf32>, vector<8x128xf32>, vector<8x128xf32>, vector<8x128xf32>, vector<8x128xf32>, vector<8x128xf32>, vector<8x128xf32>, vector<8x128xf32>, vector<8x128xf32>, vector<8x128xf32>, vector<8x128xf32>, vector<8x128xf32>, vector<8x128xf32>, vector<8x128xf32>, vector<8x128xf32>, vector<8x128xf32>, vector<8x128xf32>, vector<8x128xf32>, vector<8x128xf32>, vector<8x128xf32>, vector<8x128xf32>, vector<8x128xf32>, vector<8x128xf32>, vector<8x128xf32>, vector<8x128xf32>, vector<8x128xf32>, vector<8x128xf32>, vector<8x128xf32>, vector<8x128xf32>, vector<8x128xf32>, vector<8x128xf32>, vector<8x128xf32>, vector<8x128xf32>, vector<8x128xf32>, vector<8x128xf32>, vector<8x128xf32>, vector<8x128xf32>, vector<8x128xf32>, vector<8x128xf32>, vector<8x128xf32>, vector<8x128xf32> -> vector<512x256xf32> loc(#loc246)
      %474 = tpu.matmul %471, %472, %473 {dimension_numbers = #tpu.dot_dimension_numbers<[1], [1], [0], [0], [0, 0, 1, 0], [], []>} : vector<512x256xbf16>, vector<256x256xbf16>, vector<512x256xf32> -> vector<512x256xf32> loc(#loc246)
      %475:128 = tpu.unroll_vectors %474 {in_layout = [#tpu.vpad<"32,{0,0},(8,128)">]} : vector<512x256xf32> -> vector<8x128xf32>, vector<8x128xf32>, vector<8x128xf32>, vector<8x128xf32>, vector<8x128xf32>, vector<8x128xf32>, vector<8x128xf32>, vector<8x128xf32>, vector<8x128xf32>, vector<8x128xf32>, vector<8x128xf32>, vector<8x128xf32>, vector<8x128xf32>, vector<8x128xf32>, vector<8x128xf32>, vector<8x128xf32>, vector<8x128xf32>, vector<8x128xf32>, vector<8x128xf32>, vector<8x128xf32>, vector<8x128xf32>, vector<8x128xf32>, vector<8x128xf32>, vector<8x128xf32>, vector<8x128xf32>, vector<8x128xf32>, vector<8x128xf32>, vector<8x128xf32>, vector<8x128xf32>, vector<8x128xf32>, vector<8x128xf32>, vector<8x128xf32>, vector<8x128xf32>, vector<8x128xf32>, vector<8x128xf32>, vector<8x128xf32>, vector<8x128xf32>, vector<8x128xf32>, vector<8x128xf32>, vector<8x128xf32>, vector<8x128xf32>, vector<8x128xf32>, vector<8x128xf32>, vector<8x128xf32>, vector<8x128xf32>, vector<8x128xf32>, vector<8x128xf32>, vector<8x128xf32>, vector<8x128xf32>, vector<8x128xf32>, vector<8x128xf32>, vector<8x128xf32>, vector<8x128xf32>, vector<8x128xf32>, vector<8x128xf32>, vector<8x128xf32>, vector<8x128xf32>, vector<8x128xf32>, vector<8x128xf32>, vector<8x128xf32>, vector<8x128xf32>, vector<8x128xf32>, vector<8x128xf32>, vector<8x128xf32>, vector<8x128xf32>, vector<8x128xf32>, vector<8x128xf32>, vector<8x128xf32>, vector<8x128xf32>, vector<8x128xf32>, vector<8x128xf32>, vector<8x128xf32>, vector<8x128xf32>, vector<8x128xf32>, vector<8x128xf32>, vector<8x128xf32>, vector<8x128xf32>, vector<8x128xf32>, vector<8x128xf32>, vector<8x128xf32>, vector<8x128xf32>, vector<8x128xf32>, vector<8x128xf32>, vector<8x128xf32>, vector<8x128xf32>, vector<8x128xf32>, vector<8x128xf32>, vector<8x128xf32>, vector<8x128xf32>, vector<8x128xf32>, vector<8x128xf32>, vector<8x128xf32>, vector<8x128xf32>, vector<8x128xf32>, vector<8x128xf32>, vector<8x128xf32>, vector<8x128xf32>, vector<8x128xf32>, vector<8x128xf32>, vector<8x128xf32>, vector<8x128xf32>, vector<8x128xf32>, vector<8x128xf32>, vector<8x128xf32>, vector<8x128xf32>, vector<8x128xf32>, vector<8x128xf32>, vector<8x128xf32>, vector<8x128xf32>, vector<8x128xf32>, vector<8x128xf32>, vector<8x128xf32>, vector<8x128xf32>, vector<8x128xf32>, vector<8x128xf32>, vector<8x128xf32>, vector<8x128xf32>, vector<8x128xf32>, vector<8x128xf32>, vector<8x128xf32>, vector<8x128xf32>, vector<8x128xf32>, vector<8x128xf32>, vector<8x128xf32>, vector<8x128xf32>, vector<8x128xf32>, vector<8x128xf32>, vector<8x128xf32> loc(#loc246)
      %476 = tpu.roll_vectors %425, %cst_2, %428, %cst_2, %431, %cst_2, %434, %cst_2, %437, %cst_2, %440, %cst_2, %443, %cst_2, %446, %cst_2, %449, %cst_2, %452, %cst_2, %455, %cst_2, %458, %cst_2, %461, %cst_2, %464, %cst_2, %467, %cst_2, %470, %cst_2 {out_layout = [#tpu.vpad<"16,{0,0},(16,128)">]} : vector<8x128x2xbf16>, vector<8x128x2xbf16>, vector<8x128x2xbf16>, vector<8x128x2xbf16>, vector<8x128x2xbf16>, vector<8x128x2xbf16>, vector<8x128x2xbf16>, vector<8x128x2xbf16>, vector<8x128x2xbf16>, vector<8x128x2xbf16>, vector<8x128x2xbf16>, vector<8x128x2xbf16>, vector<8x128x2xbf16>, vector<8x128x2xbf16>, vector<8x128x2xbf16>, vector<8x128x2xbf16>, vector<8x128x2xbf16>, vector<8x128x2xbf16>, vector<8x128x2xbf16>, vector<8x128x2xbf16>, vector<8x128x2xbf16>, vector<8x128x2xbf16>, vector<8x128x2xbf16>, vector<8x128x2xbf16>, vector<8x128x2xbf16>, vector<8x128x2xbf16>, vector<8x128x2xbf16>, vector<8x128x2xbf16>, vector<8x128x2xbf16>, vector<8x128x2xbf16>, vector<8x128x2xbf16>, vector<8x128x2xbf16> -> vector<256x256xbf16> loc(#loc246)
      %477 = tpu.matmul %471, %476, %473 {dimension_numbers = #tpu.dot_dimension_numbers<[1], [1], [0], [0], [0, 0, 1, 0], [], []>} : vector<512x256xbf16>, vector<256x256xbf16>, vector<512x256xf32> -> vector<512x256xf32> loc(#loc246)
      %478:128 = tpu.unroll_vectors %477 {in_layout = [#tpu.vpad<"32,{0,0},(8,128)">]} : vector<512x256xf32> -> vector<8x128xf32>, vector<8x128xf32>, vector<8x128xf32>, vector<8x128xf32>, vector<8x128xf32>, vector<8x128xf32>, vector<8x128xf32>, vector<8x128xf32>, vector<8x128xf32>, vector<8x128xf32>, vector<8x128xf32>, vector<8x128xf32>, vector<8x128xf32>, vector<8x128xf32>, vector<8x128xf32>, vector<8x128xf32>, vector<8x128xf32>, vector<8x128xf32>, vector<8x128xf32>, vector<8x128xf32>, vector<8x128xf32>, vector<8x128xf32>, vector<8x128xf32>, vector<8x128xf32>, vector<8x128xf32>, vector<8x128xf32>, vector<8x128xf32>, vector<8x128xf32>, vector<8x128xf32>, vector<8x128xf32>, vector<8x128xf32>, vector<8x128xf32>, vector<8x128xf32>, vector<8x128xf32>, vector<8x128xf32>, vector<8x128xf32>, vector<8x128xf32>, vector<8x128xf32>, vector<8x128xf32>, vector<8x128xf32>, vector<8x128xf32>, vector<8x128xf32>, vector<8x128xf32>, vector<8x128xf32>, vector<8x128xf32>, vector<8x128xf32>, vector<8x128xf32>, vector<8x128xf32>, vector<8x128xf32>, vector<8x128xf32>, vector<8x128xf32>, vector<8x128xf32>, vector<8x128xf32>, vector<8x128xf32>, vector<8x128xf32>, vector<8x128xf32>, vector<8x128xf32>, vector<8x128xf32>, vector<8x128xf32>, vector<8x128xf32>, vector<8x128xf32>, vector<8x128xf32>, vector<8x128xf32>, vector<8x128xf32>, vector<8x128xf32>, vector<8x128xf32>, vector<8x128xf32>, vector<8x128xf32>, vector<8x128xf32>, vector<8x128xf32>, vector<8x128xf32>, vector<8x128xf32>, vector<8x128xf32>, vector<8x128xf32>, vector<8x128xf32>, vector<8x128xf32>, vector<8x128xf32>, vector<8x128xf32>, vector<8x128xf32>, vector<8x128xf32>, vector<8x128xf32>, vector<8x128xf32>, vector<8x128xf32>, vector<8x128xf32>, vector<8x128xf32>, vector<8x128xf32>, vector<8x128xf32>, vector<8x128xf32>, vector<8x128xf32>, vector<8x128xf32>, vector<8x128xf32>, vector<8x128xf32>, vector<8x128xf32>, vector<8x128xf32>, vector<8x128xf32>, vector<8x128xf32>, vector<8x128xf32>, vector<8x128xf32>, vector<8x128xf32>, vector<8x128xf32>, vector<8x128xf32>, vector<8x128xf32>, vector<8x128xf32>, vector<8x128xf32>, vector<8x128xf32>, vector<8x128xf32>, vector<8x128xf32>, vector<8x128xf32>, vector<8x128xf32>, vector<8x128xf32>, vector<8x128xf32>, vector<8x128xf32>, vector<8x128xf32>, vector<8x128xf32>, vector<8x128xf32>, vector<8x128xf32>, vector<8x128xf32>, vector<8x128xf32>, vector<8x128xf32>, vector<8x128xf32>, vector<8x128xf32>, vector<8x128xf32>, vector<8x128xf32>, vector<8x128xf32>, vector<8x128xf32>, vector<8x128xf32>, vector<8x128xf32>, vector<8x128xf32> loc(#loc246)
      %479 = arith.muli %13, %c512_i32 : i32 loc(#loc247)
      %480 = tpu.iota {dimension = 1 : i32} : vector<8x128xi32> loc(#loc248)
      %481 = arith.addi %480, %cst_1 : vector<8x128xi32> loc(#loc248)
      %482 = arith.addi %480, %cst_0 : vector<8x128xi32> loc(#loc248)
      %483 = arith.addi %480, %cst : vector<8x128xi32> loc(#loc248)
      %484 = vector.broadcast %479 : i32 to vector<8x128xi32> loc(#loc249)
      %485 = arith.addi %484, %480 : vector<8x128xi32> loc(#loc249)
      %486 = arith.addi %484, %481 : vector<8x128xi32> loc(#loc249)
      %487 = arith.addi %484, %482 : vector<8x128xi32> loc(#loc249)
      %488 = arith.addi %484, %483 : vector<8x128xi32> loc(#loc249)
      %489 = tpu.memref_slice %2[%c0_i32, %c0_i32] : memref<512x128xi32, #tpu.tiled<(1,128),[1,1]>, #tpu.memory_space<vmem>> -> memref<512x128xi32, #tpu.tiled<(1,128),[1,1]>, #tpu.memory_space<vmem>> loc(#loc250)
      %490 = tpu.erase_memref_layout %489 : memref<512x128xi32, #tpu.tiled<(1,128),[1,1]>, #tpu.memory_space<vmem>> -> memref<512x128xi32, #tpu.memory_space<vmem>> loc(#loc250)
      %491 = tpu.load %490[%c0, %c0] sublanes [true, true, true, true, true, true, true, true] sublane_stride 1 : memref<512x128xi32, #tpu.memory_space<vmem>>, vector<8x128xi32> loc(#loc250)
      %492 = tpu.load %490[%c8, %c0] sublanes [true, true, true, true, true, true, true, true] sublane_stride 1 : memref<512x128xi32, #tpu.memory_space<vmem>>, vector<8x128xi32> loc(#loc250)
      %493 = tpu.load %490[%c16, %c0] sublanes [true, true, true, true, true, true, true, true] sublane_stride 1 : memref<512x128xi32, #tpu.memory_space<vmem>>, vector<8x128xi32> loc(#loc250)
      %494 = tpu.load %490[%c24, %c0] sublanes [true, true, true, true, true, true, true, true] sublane_stride 1 : memref<512x128xi32, #tpu.memory_space<vmem>>, vector<8x128xi32> loc(#loc250)
      %495 = tpu.load %490[%c32, %c0] sublanes [true, true, true, true, true, true, true, true] sublane_stride 1 : memref<512x128xi32, #tpu.memory_space<vmem>>, vector<8x128xi32> loc(#loc250)
      %496 = tpu.load %490[%c40, %c0] sublanes [true, true, true, true, true, true, true, true] sublane_stride 1 : memref<512x128xi32, #tpu.memory_space<vmem>>, vector<8x128xi32> loc(#loc250)
      %497 = tpu.load %490[%c48, %c0] sublanes [true, true, true, true, true, true, true, true] sublane_stride 1 : memref<512x128xi32, #tpu.memory_space<vmem>>, vector<8x128xi32> loc(#loc250)
      %498 = tpu.load %490[%c56, %c0] sublanes [true, true, true, true, true, true, true, true] sublane_stride 1 : memref<512x128xi32, #tpu.memory_space<vmem>>, vector<8x128xi32> loc(#loc250)
      %499 = tpu.load %490[%c64, %c0] sublanes [true, true, true, true, true, true, true, true] sublane_stride 1 : memref<512x128xi32, #tpu.memory_space<vmem>>, vector<8x128xi32> loc(#loc250)
      %500 = tpu.load %490[%c72, %c0] sublanes [true, true, true, true, true, true, true, true] sublane_stride 1 : memref<512x128xi32, #tpu.memory_space<vmem>>, vector<8x128xi32> loc(#loc250)
      %501 = tpu.load %490[%c80, %c0] sublanes [true, true, true, true, true, true, true, true] sublane_stride 1 : memref<512x128xi32, #tpu.memory_space<vmem>>, vector<8x128xi32> loc(#loc250)
      %502 = tpu.load %490[%c88, %c0] sublanes [true, true, true, true, true, true, true, true] sublane_stride 1 : memref<512x128xi32, #tpu.memory_space<vmem>>, vector<8x128xi32> loc(#loc250)
      %503 = tpu.load %490[%c96, %c0] sublanes [true, true, true, true, true, true, true, true] sublane_stride 1 : memref<512x128xi32, #tpu.memory_space<vmem>>, vector<8x128xi32> loc(#loc250)
      %504 = tpu.load %490[%c104, %c0] sublanes [true, true, true, true, true, true, true, true] sublane_stride 1 : memref<512x128xi32, #tpu.memory_space<vmem>>, vector<8x128xi32> loc(#loc250)
      %505 = tpu.load %490[%c112, %c0] sublanes [true, true, true, true, true, true, true, true] sublane_stride 1 : memref<512x128xi32, #tpu.memory_space<vmem>>, vector<8x128xi32> loc(#loc250)
      %506 = tpu.load %490[%c120, %c0] sublanes [true, true, true, true, true, true, true, true] sublane_stride 1 : memref<512x128xi32, #tpu.memory_space<vmem>>, vector<8x128xi32> loc(#loc250)
      %507 = tpu.load %490[%c128, %c0] sublanes [true, true, true, true, true, true, true, true] sublane_stride 1 : memref<512x128xi32, #tpu.memory_space<vmem>>, vector<8x128xi32> loc(#loc250)
      %508 = tpu.load %490[%c136, %c0] sublanes [true, true, true, true, true, true, true, true] sublane_stride 1 : memref<512x128xi32, #tpu.memory_space<vmem>>, vector<8x128xi32> loc(#loc250)
      %509 = tpu.load %490[%c144, %c0] sublanes [true, true, true, true, true, true, true, true] sublane_stride 1 : memref<512x128xi32, #tpu.memory_space<vmem>>, vector<8x128xi32> loc(#loc250)
      %510 = tpu.load %490[%c152, %c0] sublanes [true, true, true, true, true, true, true, true] sublane_stride 1 : memref<512x128xi32, #tpu.memory_space<vmem>>, vector<8x128xi32> loc(#loc250)
      %511 = tpu.load %490[%c160, %c0] sublanes [true, true, true, true, true, true, true, true] sublane_stride 1 : memref<512x128xi32, #tpu.memory_space<vmem>>, vector<8x128xi32> loc(#loc250)
      %512 = tpu.load %490[%c168, %c0] sublanes [true, true, true, true, true, true, true, true] sublane_stride 1 : memref<512x128xi32, #tpu.memory_space<vmem>>, vector<8x128xi32> loc(#loc250)
      %513 = tpu.load %490[%c176, %c0] sublanes [true, true, true, true, true, true, true, true] sublane_stride 1 : memref<512x128xi32, #tpu.memory_space<vmem>>, vector<8x128xi32> loc(#loc250)
      %514 = tpu.load %490[%c184, %c0] sublanes [true, true, true, true, true, true, true, true] sublane_stride 1 : memref<512x128xi32, #tpu.memory_space<vmem>>, vector<8x128xi32> loc(#loc250)
      %515 = tpu.load %490[%c192, %c0] sublanes [true, true, true, true, true, true, true, true] sublane_stride 1 : memref<512x128xi32, #tpu.memory_space<vmem>>, vector<8x128xi32> loc(#loc250)
      %516 = tpu.load %490[%c200, %c0] sublanes [true, true, true, true, true, true, true, true] sublane_stride 1 : memref<512x128xi32, #tpu.memory_space<vmem>>, vector<8x128xi32> loc(#loc250)
      %517 = tpu.load %490[%c208, %c0] sublanes [true, true, true, true, true, true, true, true] sublane_stride 1 : memref<512x128xi32, #tpu.memory_space<vmem>>, vector<8x128xi32> loc(#loc250)
…
      tpu.store %16[%c16, %c0], %cst_3 sublanes [true, true, true, true, true, true, true, true] sublane_stride 1 : memref<512x128xf32, #tpu.memory_space<vmem>>, vector<8x128xf32>,  loc(#loc278)
      tpu.store %16[%c24, %c0], %cst_3 sublanes [true, true, true, true, true, true, true, true] sublane_stride 1 : memref<512x128xf32, #tpu.memory_space<vmem>>, vector<8x128xf32>,  loc(#loc278)
      tpu.store %16[%c32, %c0], %cst_3 sublanes [true, true, true, true, true, true, true, true] sublane_stride 1 : memref<512x128xf32, #tpu.memory_space<vmem>>, vector<8x128xf32>,  loc(#loc278)
      tpu.store %16[%c40, %c0], %cst_3 sublanes [true, true, true, true, true, true, true, true] sublane_stride 1 : memref<512x128xf32, #tpu.memory_space<vmem>>, vector<8x128xf32>,  loc(#loc278)
      tpu.store %16[%c48, %c0], %cst_3 sublanes [true, true, true, true, true, true, true, true] sublane_stride 1 : memref<512x128xf32, #tpu.memory_space<vmem>>, vector<8x128xf32>,  loc(#loc278)
      tpu.store %16[%c56, %c0], %cst_3 sublanes [true, true, true, true, true, true, true, true] sublane_stride 1 : memref<512x128xf32, #tpu.memory_space<vmem>>, vector<8x128xf32>,  loc(#loc278)
      tpu.store %16[%c64, %c0], %cst_3 sublanes [true, true, true, true, true, true, true, true] sublane_stride 1 : memref<512x128xf32, #tpu.memory_space<vmem>>, vector<8x128xf32>,  loc(#loc278)
      tpu.store %16[%c72, %c0], %cst_3 sublanes [true, true, true, true, true, true, true, true] sublane_stride 1 : memref<512x128xf32, #tpu.memory_space<vmem>>, vector<8x128xf32>,  loc(#loc278)
      tpu.store %16[%c80, %c0], %cst_3 sublanes [true, true, true, true, true, true, true, true] sublane_stride 1 : memref<512x128xf32, #tpu.memory_space<vmem>>, vector<8x128xf32>,  loc(#loc278)
      tpu.store %16[%c88, %c0], %cst_3 sublanes [true, true, true, true, true, true, true, true] sublane_stride 1 : memref<512x128xf32, #tpu.memory_space<vmem>>, vector<8x128xf32>,  loc(#loc278)
      tpu.store %16[%c96, %c0], %cst_3 sublanes [true, true, true, true, true, true, true, true] sublane_stride 1 : memref<512x128xf32, #tpu.memory_space<vmem>>, vector<8x128xf32>,  loc(#loc278)
      tpu.store %16[%c104, %c0], %cst_3 sublanes [true, true, true, true, true, true, true, true] sublane_stride 1 : memref<512x128xf32, #tpu.memory_space<vmem>>, vector<8x128xf32>,  loc(#loc278)
      tpu.store %16[%c112, %c0], %cst_3 sublanes [true, true, true, true, true, true, true, true] sublane_stride 1 : memref<512x128xf32, #tpu.memory_space<vmem>>, vector<8x128xf32>,  loc(#loc278)
      tpu.store %16[%c120, %c0], %cst_3 sublanes [true, true, true, true, true, true, true, true] sublane_stride 1 : memref<512x128xf32, #tpu.memory_space<vmem>>, vector<8x128xf32>,  loc(#loc278)
      tpu.store %16[%c128, %c0], %cst_3 sublanes [true, true, true, true, true, true, true, true] sublane_stride 1 : memref<512x128xf32, #tpu.memory_space<vmem>>, vector<8x128xf32>,  loc(#loc278)
      tpu.store %16[%c136, %c0], %cst_3 sublanes [true, true, true, true, true, true, true, true] sublane_stride 1 : memref<512x128xf32, #tpu.memory_space<vmem>>, vector<8x128xf32>,  loc(#loc278)
      tpu.store %16[%c144, %c0], %cst_3 sublanes [true, true, true, true, true, true, true, true] sublane_stride 1 : memref<512x128xf32, #tpu.memory_space<vmem>>, vector<8x128xf32>,  loc(#loc278)
      tpu.store %16[%c152, %c0], %cst_3 sublanes [true, true, true, true, true, true, true, true] sublane_stride 1 : memref<512x128xf32, #tpu.memory_space<vmem>>, vector<8x128xf32>,  loc(#loc278)
      tpu.store %16[%c160, %c0], %cst_3 sublanes [true, true, true, true, true, true, true, true] sublane_stride 1 : memref<512x128xf32, #tpu.memory_space<vmem>>, vector<8x128xf32>,  loc(#loc278)
      tpu.store %16[%c168, %c0], %cst_3 sublanes [true, true, true, true, true, true, true, true] sublane_stride 1 : memref<512x128xf32, #tpu.memory_space<vmem>>, vector<8x128xf32>,  loc(#loc278)
      tpu.store %16[%c176, %c0], %cst_3 sublanes [true, true, true, true, true, true, true, true] sublane_stride 1 : memref<512x128xf32, #tpu.memory_space<vmem>>, vector<8x128xf32>,  loc(#loc278)
      tpu.store %16[%c184, %c0], %cst_3 sublanes [true, true, true, true, true, true, true, true] sublane_stride 1 : memref<512x128xf32, #tpu.memory_space<vmem>>, vector<8x128xf32>,  loc(#loc278)
      tpu.store %16[%c192, %c0], %cst_3 sublanes [true, true, true, true, true, true, true, true] sublane_stride 1 : memref<512x128xf32, #tpu.memory_space<vmem>>, vector<8x128xf32>,  loc(#loc278)
      tpu.store %16[%c200, %c0], %cst_3 sublanes [true, true, true, true, true, true, true, true] sublane_stride 1 : memref<512x128xf32, #tpu.memory_space<vmem>>, vector<8x128xf32>,  loc(#loc278)
      tpu.store %16[%c208, %c0], %cst_3 sublanes [true, true, true, true, true, true, true, true] sublane_stride 1 : memref<512x128xf32, #tpu.memory_space<vmem>>, vector<8x128xf32>,  loc(#loc278)
      tpu.store %16[%c216, %c0], %cst_3 sublanes [true, true, true, true, true, true, true, true] sublane_stride 1 : memref<512x128xf32, #tpu.memory_space<vmem>>, vector<8x128xf32>,  loc(#loc278)
      tpu.store %16[%c224, %c0], %cst_3 sublanes [true, true, true, true, true, true, true, true] sublane_stride 1 : memref<512x128xf32, #tpu.memory_space<vmem>>, vector<8x128xf32>,  loc(#loc278)
      tpu.store %16[%c232, %c0], %cst_3 sublanes [true, true, true, true, true, true, true, true] sublane_stride 1 : memref<512x128xf32, #tpu.memory_space<vmem>>, vector<8x128xf32>,  loc(#loc278)
      tpu.store %16[%c240, %c0], %cst_3 sublanes [true, true, true, true, true, true, true, true] sublane_stride 1 : memref<512x128xf32, #tpu.memory_space<vmem>>, vector<8x128xf32>,  loc(#loc278)
      tpu.store %16[%c248, %c0], %cst_3 sublanes [true, true, true, true, true, true, true, true] sublane_stride 1 : memref<512x128xf32, #tpu.memory_space<vmem>>, vector<8x128xf32>,  loc(#loc278)
      tpu.store %16[%c256, %c0], %cst_3 sublanes [true, true, true, true, true, true, true, true] sublane_stride 1 : memref<512x128xf32, #tpu.memory_space<vmem>>, vector<8x128xf32>,  loc(#loc278)
      tpu.store %16[%c264, %c0], %cst_3 sublanes [true, true, true, true, true, true, true, true] sublane_stride 1 : memref<512x128xf32, #tpu.memory_space<vmem>>, vector<8x128xf32>,  loc(#loc278)
      tpu.store %16[%c272, %c0], %cst_3 sublanes [true, true, true, true, true, true, true, true] sublane_stride 1 : memref<512x128xf32, #tpu.memory_space<vmem>>, vector<8x128xf32>,  loc(#loc278)
      tpu.store %16[%c280, %c0], %cst_3 sublanes [true, true, true, true, true, true, true, true] sublane_stride 1 : memref<512x128xf32, #tpu.memory_space<vmem>>, vector<8x128xf32>,  loc(#loc278)
      tpu.store %16[%c288, %c0], %cst_3 sublanes [true, true, true, true, true, true, true, true] sublane_stride 1 : memref<512x128xf32, #tpu.memory_space<vmem>>, vector<8x128xf32>,  loc(#loc278)
      tpu.store %16[%c296, %c0], %cst_3 sublanes [true, true, true, true, true, true, true, true] sublane_stride 1 : memref<512x128xf32, #tpu.memory_space<vmem>>, vector<8x128xf32>,  loc(#loc278)
      tpu.store %16[%c304, %c0], %cst_3 sublanes [true, true, true, true, true, true, true, true] sublane_stride 1 : memref<512x128xf32, #tpu.memory_space<vmem>>, vector<8x128xf32>,  loc(#loc278)
      tpu.store %16[%c312, %c0], %cst_3 sublanes [true, true, true, true, true, true, true, true] sublane_stride 1 : memref<512x128xf32, #tpu.memory_space<vmem>>, vector<8x128xf32>,  loc(#loc278)
      tpu.store %16[%c320, %c0], %cst_3 sublanes [true, true, true, true, true, true, true, true] sublane_stride 1 : memref<512x128xf32, #tpu.memory_space<vmem>>, vector<8x128xf32>,  loc(#loc278)
      tpu.store %16[%c328, %c0], %cst_3 sublanes [true, true, true, true, true, true, true, true] sublane_stride 1 : memref<512x128xf32, #tpu.memory_space<vmem>>, vector<8x128xf32>,  loc(#loc278)
      tpu.store %16[%c336, %c0], %cst_3 sublanes [true, true, true, true, true, true, true, true] sublane_stride 1 : memref<512x128xf32, #tpu.memory_space<vmem>>, vector<8x128xf32>,  loc(#loc278)
      tpu.store %16[%c344, %c0], %cst_3 sublanes [true, true, true, true, true, true, true, true] sublane_stride 1 : memref<512x128xf32, #tpu.memory_space<vmem>>, vector<8x128xf32>,  loc(#loc278)
      tpu.store %16[%c352, %c0], %cst_3 sublanes [true, true, true, true, true, true, true, true] sublane_stride 1 : memref<512x128xf32, #tpu.memory_space<vmem>>, vector<8x128xf32>,  loc(#loc278)
      tpu.store %16[%c360, %c0], %cst_3 sublanes [true, true, true, true, true, true, true, true] sublane_stride 1 : memref<512x128xf32, #tpu.memory_space<vmem>>, vector<8x128xf32>,  loc(#loc278)
      tpu.store %16[%c368, %c0], %cst_3 sublanes [true, true, true, true, true, true, true, true] sublane_stride 1 : memref<512x128xf32, #tpu.memory_space<vmem>>, vector<8x128xf32>,  loc(#loc278)
      tpu.store %16[%c376, %c0], %cst_3 sublanes [true, true, true, true, true, true, true, true] sublane_stride 1 : memref<512x128xf32, #tpu.memory_space<vmem>>, vector<8x128xf32>,  loc(#loc278)
      tpu.store %16[%c384, %c0], %cst_3 sublanes [true, true, true, true, true, true, true, true] sublane_stride 1 : memref<512x128xf32, #tpu.memory_space<vmem>>, vector<8x128xf32>,  loc(#loc278)
      tpu.store %16[%c392, %c0], %cst_3 sublanes [true, true, true, true, true, true, true, true] sublane_stride 1 : memref<512x128xf32, #tpu.memory_space<vmem>>, vector<8x128xf32>,  loc(#loc278)
      tpu.store %16[%c400, %c0], %cst_3 sublanes [true, true, true, true, true, true, true, true] sublane_stride 1 : memref<512x128xf32, #tpu.memory_space<vmem>>, vector<8x128xf32>,  loc(#loc278)
      tpu.store %16[%c408, %c0], %cst_3 sublanes [true, true, true, true, true, true, true, true] sublane_stride 1 : memref<512x128xf32, #tpu.memory_space<vmem>>, vector<8x128xf32>,  loc(#loc278)
      tpu.store %16[%c416, %c0], %cst_3 sublanes [true, true, true, true, true, true, true, true] sublane_stride 1 : memref<512x128xf32, #tpu.memory_space<vmem>>, vector<8x128xf32>,  loc(#loc278)
      tpu.store %16[%c424, %c0], %cst_3 sublanes [true, true, true, true, true, true, true, true] sublane_stride 1 : memref<512x128xf32, #tpu.memory_space<vmem>>, vector<8x128xf32>,  loc(#loc278)
      tpu.store %16[%c432, %c0], %cst_3 sublanes [true, true, true, true, true, true, true, true] sublane_stride 1 : memref<512x128xf32, #tpu.memory_space<vmem>>, vector<8x128xf32>,  loc(#loc278)
      tpu.store %16[%c440, %c0], %cst_3 sublanes [true, true, true, true, true, true, true, true] sublane_stride 1 : memref<512x128xf32, #tpu.memory_space<vmem>>, vector<8x128xf32>,  loc(#loc278)
      tpu.store %16[%c448, %c0], %cst_3 sublanes [true, true, true, true, true, true, true, true] sublane_stride 1 : memref<512x128xf32, #tpu.memory_space<vmem>>, vector<8x128xf32>,  loc(#loc278)
      tpu.store %16[%c456, %c0], %cst_3 sublanes [true, true, true, true, true, true, true, true] sublane_stride 1 : memref<512x128xf32, #tpu.memory_space<vmem>>, vector<8x128xf32>,  loc(#loc278)
      tpu.store %16[%c464, %c0], %cst_3 sublanes [true, true, true, true, true, true, true, true] sublane_stride 1 : memref<512x128xf32, #tpu.memory_space<vmem>>, vector<8x128xf32>,  loc(#loc278)
      tpu.store %16[%c472, %c0], %cst_3 sublanes [true, true, true, true, true, true, true, true] sublane_stride 1 : memref<512x128xf32, #tpu.memory_space<vmem>>, vector<8x128xf32>,  loc(#loc278)
      tpu.store %16[%c480, %c0], %cst_3 sublanes [true, true, true, true, true, true, true, true] sublane_stride 1 : memref<512x128xf32, #tpu.memory_space<vmem>>, vector<8x128xf32>,  loc(#loc278)
      tpu.store %16[%c488, %c0], %cst_3 sublanes [true, true, true, true, true, true, true, true] sublane_stride 1 : memref<512x128xf32, #tpu.memory_space<vmem>>, vector<8x128xf32>,  loc(#loc278)
      tpu.store %16[%c496, %c0], %cst_3 sublanes [true, true, true, true, true, true, true, true] sublane_stride 1 : memref<512x128xf32, #tpu.memory_space<vmem>>, vector<8x128xf32>,  loc(#loc278)
      tpu.store %16[%c504, %c0], %cst_3 sublanes [true, true, true, true, true, true, true, true] sublane_stride 1 : memref<512x128xf32, #tpu.memory_space<vmem>>, vector<8x128xf32>,  loc(#loc278)
      tpu.store %146[%c0, %c0], %cst_3 sublanes [true, true, true, true, true, true, true, true] sublane_stride 1 : memref<512x128xf32, #tpu.memory_space<vmem>>, vector<8x128xf32>,  loc(#loc279)
      tpu.store %146[%c8, %c0], %cst_3 sublanes [true, true, true, true, true, true, true, true] sublane_stride 1 : memref<512x128xf32, #tpu.memory_space<vmem>>, vector<8x128xf32>,  loc(#loc279)
      tpu.store %146[%c16, %c0], %cst_3 sublanes [true, true, true, true, true, true, true, true] sublane_stride 1 : memref<512x128xf32, #tpu.memory_space<vmem>>, vector<8x128xf32>,  loc(#loc279)
      tpu.store %146[%c24, %c0], %cst_3 sublanes [true, true, true, true, true, true, true, true] sublane_stride 1 : memref<512x128xf32, #tpu.memory_space<vmem>>, vector<8x128xf32>,  loc(#loc279)
      tpu.store %146[%c32, %c0], %cst_3 sublanes [true, true, true, true, true, true, true, true] sublane_stride 1 : memref<512x128xf32, #tpu.memory_space<vmem>>, vector<8x128xf32>,  loc(#loc279)
      tpu.store %146[%c40, %c0], %cst_3 sublanes [true, true, true, true, true, true, true, true] sublane_stride 1 : memref<512x128xf32, #tpu.memory_space<vmem>>, vector<8x128xf32>,  loc(#loc279)
      tpu.store %146[%c48, %c0], %cst_3 sublanes [true, true, true, true, true, true, true, true] sublane_stride 1 : memref<512x128xf32, #tpu.memory_space<vmem>>, vector<8x128xf32>,  loc(#loc279)
      tpu.store %146[%c56, %c0], %cst_3 sublanes [true, true, true, true, true, true, true, true] sublane_stride 1 : memref<512x128xf32, #tpu.memory_space<vmem>>, vector<8x128xf32>,  loc(#loc279)
      tpu.store %146[%c64, %c0], %cst_3 sublanes [true, true, true, true, true, true, true, true] sublane_stride 1 : memref<512x128xf32, #tpu.memory_space<vmem>>, vector<8x128xf32>,  loc(#loc279)
      tpu.store %146[%c72, %c0], %cst_3 sublanes [true, true, true, true, true, true, true, true] sublane_stride 1 : memref<512x128xf32, #tpu.memory_space<vmem>>, vector<8x128xf32>,  loc(#loc279)
      tpu.store %146[%c80, %c0], %cst_3 sublanes [true, true, true, true, true, true, true, true] sublane_stride 1 : memref<512x128xf32, #tpu.memory_space<vmem>>, vector<8x128xf32>,  loc(#loc279)
      tpu.store %146[%c88, %c0], %cst_3 sublanes [true, true, true, true, true, true, true, true] sublane_stride 1 : memref<512x128xf32, #tpu.memory_space<vmem>>, vector<8x128xf32>,  loc(#loc279)
      tpu.store %146[%c96, %c0], %cst_3 sublanes [true, true, true, true, true, true, true, true] sublane_stride 1 : memref<512x128xf32, #tpu.memory_space<vmem>>, vector<8x128xf32>,  loc(#loc279)
      tpu.store %146[%c104, %c0], %cst_3 sublanes [true, true, true, true, true, true, true, true] sublane_stride 1 : memref<512x128xf32, #tpu.memory_space<vmem>>, vector<8x128xf32>,  loc(#loc279)
      tpu.store %146[%c112, %c0], %cst_3 sublanes [true, true, true, true, true, true, true, true] sublane_stride 1 : memref<512x128xf32, #tpu.memory_space<vmem>>, vector<8x128xf32>,  loc(#loc279)
      tpu.store %146[%c120, %c0], %cst_3 sublanes [true, true, true, true, true, true, true, true] sublane_stride 1 : memref<512x128xf32, #tpu.memory_space<vmem>>, vector<8x128xf32>,  loc(#loc279)
      tpu.store %146[%c128, %c0], %cst_3 sublanes [true, true, true, true, true, true, true, true] sublane_stride 1 : memref<512x128xf32, #tpu.memory_space<vmem>>, vector<8x128xf32>,  loc(#loc279)
      tpu.store %146[%c136, %c0], %cst_3 sublanes [true, true, true, true, true, true, true, true] sublane_stride 1 : memref<512x128xf32, #tpu.memory_space<vmem>>, vector<8x128xf32>,  loc(#loc279)
      tpu.store %146[%c144, %c0], %cst_3 sublanes [true, true, true, true, true, true, true, true] sublane_stride 1 : memref<512x128xf32, #tpu.memory_space<vmem>>, vector<8x128xf32>,  loc(#loc279)
      tpu.store %146[%c152, %c0], %cst_3 sublanes [true, true, true, true, true, true, true, true] sublane_stride 1 : memref<512x128xf32, #tpu.memory_space<vmem>>, vector<8x128xf32>,  loc(#loc279)
      tpu.store %146[%c160, %c0], %cst_3 sublanes [true, true, true, true, true, true, true, true] sublane_stride 1 : memref<512x128xf32, #tpu.memory_space<vmem>>, vector<8x128xf32>,  loc(#loc279)
      tpu.store %146[%c168, %c0], %cst_3 sublanes [true, true, true, true, true, true, true, true] sublane_stride 1 : memref<512x128xf32, #tpu.memory_space<vmem>>, vector<8x128xf32>,  loc(#loc279)
      tpu.store %146[%c176, %c0], %cst_3 sublanes [true, true, true, true, true, true, true, true] sublane_stride 1 : memref<512x128xf32, #tpu.memory_space<vmem>>, vector<8x128xf32>,  loc(#loc279)
      tpu.store %146[%c184, %c0], %cst_3 sublanes [true, true, true, true, true, true, true, true] sublane_stride 1 : memref<512x128xf32, #tpu.memory_space<vmem>>, vector<8x128xf32>,  loc(#loc279)
      tpu.store %146[%c192, %c0], %cst_3 sublanes [true, true, true, true, true, true, true, true] sublane_stride 1 : memref<512x128xf32, #tpu.memory_space<vmem>>, vector<8x128xf32>,  loc(#loc279)
      tpu.store %146[%c200, %c0], %cst_3 sublanes [true, true, true, true, true, true, true, true] sublane_stride 1 : memref<512x128xf32, #tpu.memory_space<vmem>>, vector<8x128xf32>,  loc(#loc279)
      tpu.store %146[%c208, %c0], %cst_3 sublanes [true, true, true, true, true, true, true, true] sublane_stride 1 : memref<512x128xf32, #tpu.memory_space<vmem>>, vector<8x128xf32>,  loc(#loc279)
      tpu.store %146[%c216, %c0], %cst_3 sublanes [true, true, true, true, true, true, true, true] sublane_stride 1 : memref<512x128xf32, #tpu.memory_space<vmem>>, vector<8x128xf32>,  loc(#loc279)
      tpu.store %146[%c224, %c0], %cst_3 sublanes [true, true, true, true, true, true, true, true] sublane_stride 1 : memref<512x128xf32, #tpu.memory_space<vmem>>, vector<8x128xf32>,  loc(#loc279)
      tpu.store %146[%c232, %c0], %cst_3 sublanes [true, true, true, true, true, true, true, true] sublane_stride 1 : memref<512x128xf32, #tpu.memory_space<vmem>>, vector<8x128xf32>,  loc(#loc279)
      tpu.store %146[%c240, %c0], %cst_3 sublanes [true, true, true, true, true, true, true, true] sublane_stride 1 : memref<512x128xf32, #tpu.memory_space<vmem>>, vector<8x128xf32>,  loc(#loc279)
      tpu.store %146[%c248, %c0], %cst_3 sublanes [true, true, true, true, true, true, true, true] sublane_stride 1 : memref<512x128xf32, #tpu.memory_space<vmem>>, vector<8x128xf32>,  loc(#loc279)
      tpu.store %146[%c256, %c0], %cst_3 sublanes [true, true, true, true, true, true, true, true] sublane_stride 1 : memref<512x128xf32, #tpu.memory_space<vmem>>, vector<8x128xf32>,  loc(#loc279)
      tpu.store %146[%c264, %c0], %cst_3 sublanes [true, true, true, true, true, true, true, true] sublane_stride 1 : memref<512x128xf32, #tpu.memory_space<vmem>>, vector<8x128xf32>,  loc(#loc279)
      tpu.store %146[%c272, %c0], %cst_3 sublanes [true, true, true, true, true, true, true, true] sublane_stride 1 : memref<512x128xf32, #tpu.memory_space<vmem>>, vector<8x128xf32>,  loc(#loc279)
      tpu.store %146[%c280, %c0], %cst_3 sublanes [true, true, true, true, true, true, true, true] sublane_stride 1 : memref<512x128xf32, #tpu.memory_space<vmem>>, vector<8x128xf32>,  loc(#loc279)
      tpu.store %146[%c288, %c0], %cst_3 sublanes [true, true, true, true, true, true, true, true] sublane_stride 1 : memref<512x128xf32, #tpu.memory_space<vmem>>, vector<8x128xf32>,  loc(#loc279)
      tpu.store %146[%c296, %c0], %cst_3 sublanes [true, true, true, true, true, true, true, true] sublane_stride 1 : memref<512x128xf32, #tpu.memory_space<vmem>>, vector<8x128xf32>,  loc(#loc279)
      tpu.store %146[%c304, %c0], %cst_3 sublanes [true, true, true, true, true, true, true, true] sublane_stride 1 : memref<512x128xf32, #tpu.memory_space<vmem>>, vector<8x128xf32>,  loc(#loc279)
      tpu.store %146[%c312, %c0], %cst_3 sublanes [true, true, true, true, true, true, true, true] sublane_stride 1 : memref<512x128xf32, #tpu.memory_space<vmem>>, vector<8x128xf32>,  loc(#loc279)
      tpu.store %146[%c320, %c0], %cst_3 sublanes [true, true, true, true, true, true, true, true] sublane_stride 1 : memref<512x128xf32, #tpu.memory_space<vmem>>, vector<8x128xf32>,  loc(#loc279)
      tpu.store %146[%c328, %c0], %cst_3 sublanes [true, true, true, true, true, true, true, true] sublane_stride 1 : memref<512x128xf32, #tpu.memory_space<vmem>>, vector<8x128xf32>,  loc(#loc279)
      tpu.store %146[%c336, %c0], %cst_3 sublanes [true, true, true, true, true, true, true, true] sublane_stride 1 : memref<512x128xf32, #tpu.memory_space<vmem>>, vector<8x128xf32>,  loc(#loc279)
      tpu.store %146[%c344, %c0], %cst_3 sublanes [true, true, true, true, true, true, true, true] sublane_stride 1 : memref<512x128xf32, #tpu.memory_space<vmem>>, vector<8x128xf32>,  loc(#loc279)
      tpu.store %146[%c352, %c0], %cst_3 sublanes [true, true, true, true, true, true, true, true] sublane_stride 1 : memref<512x128xf32, #tpu.memory_space<vmem>>, vector<8x128xf32>,  loc(#loc279)
      tpu.store %146[%c360, %c0], %cst_3 sublanes [true, true, true, true, true, true, true, true] sublane_stride 1 : memref<512x128xf32, #tpu.memory_space<vmem>>, vector<8x128xf32>,  loc(#loc279)
      tpu.store %146[%c368, %c0], %cst_3 sublanes [true, true, true, true, true, true, true, true] sublane_stride 1 : memref<512x128xf32, #tpu.memory_space<vmem>>, vector<8x128xf32>,  loc(#loc279)
      tpu.store %146[%c376, %c0], %cst_3 sublanes [true, true, true, true, true, true, true, true] sublane_stride 1 : memref<512x128xf32, #tpu.memory_space<vmem>>, vector<8x128xf32>,  loc(#loc279)
      tpu.store %146[%c384, %c0], %cst_3 sublanes [true, true, true, true, true, true, true, true] sublane_stride 1 : memref<512x128xf32, #tpu.memory_space<vmem>>, vector<8x128xf32>,  loc(#loc279)
      tpu.store %146[%c392, %c0], %cst_3 sublanes [true, true, true, true, true, true, true, true] sublane_stride 1 : memref<512x128xf32, #tpu.memory_space<vmem>>, vector<8x128xf32>,  loc(#loc279)
      tpu.store %146[%c400, %c0], %cst_3 sublanes [true, true, true, true, true, true, true, true] sublane_stride 1 : memref<512x128xf32, #tpu.memory_space<vmem>>, vector<8x128xf32>,  loc(#loc279)
      tpu.store %146[%c408, %c0], %cst_3 sublanes [true, true, true, true, true, true, true, true] sublane_stride 1 : memref<512x128xf32, #tpu.memory_space<vmem>>, vector<8x128xf32>,  loc(#loc279)
      tpu.store %146[%c416, %c0], %cst_3 sublanes [true, true, true, true, true, true, true, true] sublane_stride 1 : memref<512x128xf32, #tpu.memory_space<vmem>>, vector<8x128xf32>,  loc(#loc279)
      tpu.store %146[%c424, %c0], %cst_3 sublanes [true, true, true, true, true, true, true, true] sublane_stride 1 : memref<512x128xf32, #tpu.memory_space<vmem>>, vector<8x128xf32>,  loc(#loc279)
      tpu.store %146[%c432, %c0], %cst_3 sublanes [true, true, true, true, true, true, true, true] sublane_stride 1 : memref<512x128xf32, #tpu.memory_space<vmem>>, vector<8x128xf32>,  loc(#loc279)
      tpu.store %146[%c440, %c0], %cst_3 sublanes [true, true, true, true, true, true, true, true] sublane_stride 1 : memref<512x128xf32, #tpu.memory_space<vmem>>, vector<8x128xf32>,  loc(#loc279)
      tpu.store %146[%c448, %c0], %cst_3 sublanes [true, true, true, true, true, true, true, true] sublane_stride 1 : memref<512x128xf32, #tpu.memory_space<vmem>>, vector<8x128xf32>,  loc(#loc279)
      tpu.store %146[%c456, %c0], %cst_3 sublanes [true, true, true, true, true, true, true, true] sublane_stride 1 : memref<512x128xf32, #tpu.memory_space<vmem>>, vector<8x128xf32>,  loc(#loc279)
      tpu.store %146[%c464, %c0], %cst_3 sublanes [true, true, true, true, true, true, true, true] sublane_stride 1 : memref<512x128xf32, #tpu.memory_space<vmem>>, vector<8x128xf32>,  loc(#loc279)
      tpu.store %146[%c472, %c0], %cst_3 sublanes [true, true, true, true, true, true, true, true] sublane_stride 1 : memref<512x128xf32, #tpu.memory_space<vmem>>, vector<8x128xf32>,  loc(#loc279)
      tpu.store %146[%c480, %c0], %cst_3 sublanes [true, true, true, true, true, true, true, true] sublane_stride 1 : memref<512x128xf32, #tpu.memory_space<vmem>>, vector<8x128xf32>,  loc(#loc279)
      tpu.store %146[%c488, %c0], %cst_3 sublanes [true, true, true, true, true, true, true, true] sublane_stride 1 : memref<512x128xf32, #tpu.memory_space<vmem>>, vector<8x128xf32>,  loc(#loc279)
      tpu.store %146[%c496, %c0], %cst_3 sublanes [true, true, true, true, true, true, true, true] sublane_stride 1 : memref<512x128xf32, #tpu.memory_space<vmem>>, vector<8x128xf32>,  loc(#loc279)
      tpu.store %146[%c504, %c0], %cst_3 sublanes [true, true, true, true, true, true, true, true] sublane_stride 1 : memref<512x128xf32, #tpu.memory_space<vmem>>, vector<8x128xf32>,  loc(#loc279)
    } {in_layout = [#tpu.vpad<"none">]} loc(#loc220)
    return {in_layout = []} loc(#loc)
  } loc(#loc)
  func.func @transform_0(%arg0: i32 loc(unknown), %arg1: i32 loc(unknown), %arg2: i32 loc(unknown), %arg3: memref<1x4x128xi8, #tpu.tiled<(4,128)(4,1),[1,1,1]>, #tpu.memory_space<smem>> loc(unknown), %arg4: memref<1x4x128xi8, #tpu.tiled<(4,128)(4,1),[1,1,1]>, #tpu.memory_space<smem>> loc(unknown)) -> (i32, i32, i32) {
    %c0_i32 = arith.constant {in_layout = []} 0 : i32 loc(#loc)
    return %arg0, %arg1, %c0_i32 : i32, i32, i32 loc(#loc)
  } loc(#loc)
  func.func @transform_1(%arg0: i32 loc(unknown), %arg1: i32 loc(unknown), %arg2: i32 loc(unknown), %arg3: memref<1x4x128xi8, #tpu.tiled<(4,128)(4,1),[1,1,1]>, #tpu.memory_space<smem>> loc(unknown), %arg4: memref<1x4x128xi8, #tpu.tiled<(4,128)(4,1),[1,1,1]>, #tpu.memory_space<smem>> loc(unknown)) -> (i32, i32, i32) {
    %c0_i32 = arith.constant {in_layout = []} 0 : i32 loc(#loc)
    %c0 = arith.constant {in_layout = []} 0 : index loc(#loc)
    %0 = tpu.erase_memref_layout %arg3 : memref<1x4x128xi8, #tpu.tiled<(4,128)(4,1),[1,1,1]>, #tpu.memory_space<smem>> -> memref<1x4x128xi8, #tpu.memory_space<smem>> loc(#loc)
    %1 = arith.index_cast %arg1 : i32 to index loc(#loc280)
    %2 = arith.index_cast %arg2 : i32 to index loc(#loc280)
    %3 = memref.load %0[%c0, %1, %2] : memref<1x4x128xi8, #tpu.memory_space<smem>> loc(#loc280)
    %4 = arith.extsi %3 : i8 to i32 loc(#loc281)
    return %arg0, %4, %c0_i32 : i32, i32, i32 loc(#loc)
  } loc(#loc)
  func.func @transform_2(%arg0: i32 loc(unknown), %arg1: i32 loc(unknown), %arg2: i32 loc(unknown), %arg3: memref<1x4x128xi8, #tpu.tiled<(4,128)(4,1),[1,1,1]>, #tpu.memory_space<smem>> loc(unknown), %arg4: memref<1x4x128xi8, #tpu.tiled<(4,128)(4,1),[1,1,1]>, #tpu.memory_space<smem>> loc(unknown)) -> (i32, i32, i32) {
    %c0_i32 = arith.constant {in_layout = []} 0 : i32 loc(#loc)
    %c0 = arith.constant {in_layout = []} 0 : index loc(#loc)
    %0 = tpu.erase_memref_layout %arg3 : memref<1x4x128xi8, #tpu.tiled<(4,128)(4,1),[1,1,1]>, #tpu.memory_space<smem>> -> memref<1x4x128xi8, #tpu.memory_space<smem>> loc(#loc)
    %1 = arith.index_cast %arg1 : i32 to index loc(#loc282)
    %2 = arith.index_cast %arg2 : i32 to index loc(#loc282)
    %3 = memref.load %0[%c0, %1, %2] : memref<1x4x128xi8, #tpu.memory_space<smem>> loc(#loc282)
    %4 = arith.extsi %3 : i8 to i32 loc(#loc283)
    return %arg0, %4, %c0_i32 : i32, i32, i32 loc(#loc)
  } loc(#loc)
  func.func @transform_3(%arg0: i32 loc(unknown), %arg1: i32 loc(unknown), %arg2: i32 loc(unknown), %arg3: memref<1x4x128xi8, #tpu.tiled<(4,128)(4,1),[1,1,1]>, #tpu.memory_space<smem>> loc(unknown), %arg4: memref<1x4x128xi8, #tpu.tiled<(4,128)(4,1),[1,1,1]>, #tpu.memory_space<smem>> loc(unknown)) -> (i32, i32) {
    %c0_i32 = arith.constant {in_layout = []} 0 : i32 loc(#loc)
    return %arg1, %c0_i32 : i32, i32 loc(#loc)
  } loc(#loc)
  func.func @transform_4(%arg0: i32 loc(unknown), %arg1: i32 loc(unknown), %arg2: i32 loc(unknown), %arg3: memref<1x4x128xi8, #tpu.tiled<(4,128)(4,1),[1,1,1]>, #tpu.memory_space<smem>> loc(unknown), %arg4: memref<1x4x128xi8, #tpu.tiled<(4,128)(4,1),[1,1,1]>, #tpu.memory_space<smem>> loc(unknown)) -> (i32, i32) {
    %c0_i32 = arith.constant {in_layout = []} 0 : i32 loc(#loc)
    return %c0_i32, %c0_i32 : i32, i32 loc(#loc)
  } loc(#loc)
  func.func @transform_5(%arg0: i32 loc(unknown), %arg1: i32 loc(unknown), %arg2: i32 loc(unknown), %arg3: memref<1x4x128xi8, #tpu.tiled<(4,128)(4,1),[1,1,1]>, #tpu.memory_space<smem>> loc(unknown), %arg4: memref<1x4x128xi8, #tpu.tiled<(4,128)(4,1),[1,1,1]>, #tpu.memory_space<smem>> loc(unknown)) -> (i32, i32) {
    %c0_i32 = arith.constant {in_layout = []} 0 : i32 loc(#loc)
    return %c0_i32, %c0_i32 : i32, i32 loc(#loc)
  } loc(#loc)
  func.func @transform_6(%arg0: i32 loc(unknown), %arg1: i32 loc(unknown), %arg2: i32 loc(unknown), %arg3: memref<1x4x128xi8, #tpu.tiled<(4,128)(4,1),[1,1,1]>, #tpu.memory_space<smem>> loc(unknown), %arg4: memref<1x4x128xi8, #tpu.tiled<(4,128)(4,1),[1,1,1]>, #tpu.memory_space<smem>> loc(unknown)) -> (i32, i32) {
    %c0_i32 = arith.constant {in_layout = []} 0 : i32 loc(#loc)
    return %c0_i32, %c0_i32 : i32, i32 loc(#loc)
  } loc(#loc)
  func.func @transform_7(%arg0: i32 loc(unknown), %arg1: i32 loc(unknown), %arg2: i32 loc(unknown), %arg3: memref<1x4x128xi8, #tpu.tiled<(4,128)(4,1),[1,1,1]>, #tpu.memory_space<smem>> loc(unknown), %arg4: memref<1x4x128xi8, #tpu.tiled<(4,128)(4,1),[1,1,1]>, #tpu.memory_space<smem>> loc(unknown)) -> (i32, i32, i32) {
    %c0_i32 = arith.constant {in_layout = []} 0 : i32 loc(#loc)
    return %arg0, %arg1, %c0_i32 : i32, i32, i32 loc(#loc)
  } loc(#loc)
} loc(#loc)
#loc1 = loc("/home/ptoulme/miniconda3/envs/vllm/lib/python3.12/site-packages/jax/experimental/pallas/ops/tpu/splash_attention/splash_attention_kernel.py":722:11 to :17)
#loc2 = loc("/home/ptoulme/miniconda3/envs/vllm/lib/python3.12/site-packages/jax/experimental/pallas/ops/tpu/splash_attention/splash_attention_kernel.py":1100:14 to 1138:5)
#loc3 = loc("/home/ptoulme/miniconda3/envs/vllm/lib/python3.12/site-packages/jax/experimental/pallas/ops/tpu/splash_attention/splash_attention_kernel.py":1192:9 to 1206:3)
#loc4 = loc("/home/ptoulme/miniconda3/envs/vllm/lib/python3.12/site-packages/jax/experimental/pallas/ops/tpu/splash_attention/splash_attention_kernel.py":2312:9 to 2328:3)
#loc5 = loc("/home/ptoulme/miniconda3/envs/vllm/lib/python3.12/site-packages/jax/experimental/pallas/ops/tpu/splash_attention/splash_attention_kernel.py":2347:11 to 2354:5)
#loc6 = loc("/home/ptoulme/justabyte/tpu_pallas_post/./pallas_kernel.py":64:19 to :39)
#loc7 = loc("/home/ptoulme/justabyte/tpu_pallas_post/./pallas_kernel.py":70:17 to :32)
#loc8 = loc("/home/ptoulme/justabyte/tpu_pallas_post/./pallas_kernel.py":153:32 to :94)
#loc9 = loc("/home/ptoulme/justabyte/tpu_pallas_post/./pallas_kernel.py":191:4 to :10)
#loc10 = loc("/home/ptoulme/miniconda3/envs/vllm/lib/python3.12/site-packages/jax/experimental/pallas/ops/tpu/splash_attention/splash_attention_kernel.py":722:3 to :18)
#loc11 = loc("/home/ptoulme/miniconda3/envs/vllm/lib/python3.12/site-packages/jax/experimental/pallas/ops/tpu/splash_attention/splash_attention_kernel.py":724:4 to :22)
#loc12 = loc("/home/ptoulme/miniconda3/envs/vllm/lib/python3.12/site-packages/jax/experimental/pallas/ops/tpu/splash_attention/splash_attention_kernel.py":725:4 to :22)
#loc13 = loc("/home/ptoulme/miniconda3/envs/vllm/lib/python3.12/site-packages/jax/experimental/pallas/ops/tpu/splash_attention/splash_attention_kernel.py":726:4 to :22)
#loc14 = loc("/home/ptoulme/miniconda3/envs/vllm/lib/python3.12/site-packages/jax/experimental/pallas/ops/tpu/splash_attention/splash_attention_kernel.py":569:22 to :45)
#loc15 = loc("/home/ptoulme/miniconda3/envs/vllm/lib/python3.12/site-packages/jax/experimental/pallas/ops/tpu/splash_attention/splash_attention_kernel.py":728:52 to 735:3)
#loc16 = loc("/home/ptoulme/miniconda3/envs/vllm/lib/python3.12/site-packages/jax/experimental/pallas/ops/tpu/splash_attention/splash_attention_kernel.py":567:21 to :40)
#loc17 = loc("/home/ptoulme/miniconda3/envs/vllm/lib/python3.12/site-packages/jax/experimental/pallas/ops/tpu/splash_attention/splash_attention_kernel.py":569:15 to :46)
#loc18 = loc("/home/ptoulme/miniconda3/envs/vllm/lib/python3.12/site-packages/jax/experimental/pallas/ops/tpu/splash_attention/splash_attention_kernel.py":569:15 to :50)
#loc19 = loc("/home/ptoulme/miniconda3/envs/vllm/lib/python3.12/site-packages/jax/experimental/pallas/ops/tpu/splash_attention/splash_attention_kernel.py":576:18 to :40)
#loc20 = loc("/home/ptoulme/miniconda3/envs/vllm/lib/python3.12/site-packages/jax/experimental/pallas/ops/tpu/splash_attention/splash_attention_kernel.py":576:11 to :41)
#loc21 = loc("/home/ptoulme/miniconda3/envs/vllm/lib/python3.12/site-packages/jax/experimental/pallas/ops/tpu/splash_attention/splash_attention_kernel.py":806:3 to :22)
#loc22 = loc("/home/ptoulme/miniconda3/envs/vllm/lib/python3.12/site-packages/jax/experimental/pallas/ops/tpu/splash_attention/splash_attention_kernel.py":739:21 to :39)
#loc23 = loc("/home/ptoulme/miniconda3/envs/vllm/lib/python3.12/site-packages/jax/experimental/pallas/ops/tpu/splash_attention/splash_attention_kernel.py":812:4 to :56)
#loc24 = loc("/home/ptoulme/miniconda3/envs/vllm/lib/python3.12/site-packages/jax/experimental/pallas/ops/tpu/splash_attention/splash_attention_kernel.py":739:41 to :59)
#loc25 = loc("/home/ptoulme/miniconda3/envs/vllm/lib/python3.12/site-packages/jax/experimental/pallas/ops/tpu/splash_attention/splash_attention_kernel.py":743:8 to :18)
#loc26 = loc("/home/ptoulme/miniconda3/envs/vllm/lib/python3.12/site-packages/jax/experimental/pallas/ops/tpu/splash_attention/splash_attention_kernel.py":746:10 to :27)
#loc27 = loc("/home/ptoulme/miniconda3/envs/vllm/lib/python3.12/site-packages/jax/experimental/pallas/ops/tpu/splash_attention/splash_attention_kernel.py":749:9 to :71)
#loc28 = loc("/home/ptoulme/miniconda3/envs/vllm/lib/python3.12/site-packages/jax/experimental/pallas/ops/tpu/splash_attention/splash_attention_kernel.py":767:17 to :38)
#loc29 = loc("/home/ptoulme/miniconda3/envs/vllm/lib/python3.12/site-packages/jax/experimental/pallas/ops/tpu/splash_attention/splash_attention_kernel.py":618:30 to 620:7)
#loc30 = loc("/home/ptoulme/miniconda3/envs/vllm/lib/python3.12/site-packages/jax/experimental/pallas/ops/tpu/splash_attention/splash_attention_kernel.py":772:9 to :34)
#loc31 = loc("/home/ptoulme/miniconda3/envs/vllm/lib/python3.12/site-packages/jax/experimental/pallas/ops/tpu/splash_attention/splash_attention_kernel.py":618:19 to 620:7)
#loc32 = loc("/home/ptoulme/miniconda3/envs/vllm/lib/python3.12/site-packages/jax/experimental/pallas/ops/tpu/splash_attention/splash_attention_kernel.py":625:10 to :29)
#loc33 = loc("/home/ptoulme/miniconda3/envs/vllm/lib/python3.12/site-packages/jax/experimental/pallas/ops/tpu/splash_attention/splash_attention_mask.py":320:15 to :30)
#loc34 = loc("/home/ptoulme/miniconda3/envs/vllm/lib/python3.12/site-packages/jax/experimental/pallas/ops/tpu/splash_attention/splash_attention_kernel.py":637:20 to :57)
#loc35 = loc("/home/ptoulme/miniconda3/envs/vllm/lib/python3.12/site-packages/jax/experimental/pallas/ops/tpu/splash_attention/splash_attention_kernel.py":673:9 to :40)
#loc36 = loc("/home/ptoulme/miniconda3/envs/vllm/lib/python3.12/site-packages/jax/experimental/pallas/ops/tpu/splash_attention/splash_attention_kernel.py":774:13 to :28)
#loc37 = loc("/home/ptoulme/miniconda3/envs/vllm/lib/python3.12/site-packages/jax/experimental/pallas/ops/tpu/splash_attention/splash_attention_kernel.py":776:13 to :40)
#loc38 = loc("/home/ptoulme/miniconda3/envs/vllm/lib/python3.12/site-packages/jax/experimental/pallas/ops/tpu/splash_attention/splash_attention_kernel.py":785:21 to :67)
#loc39 = loc("/home/ptoulme/miniconda3/envs/vllm/lib/python3.12/site-packages/jax/experimental/pallas/ops/tpu/splash_attention/splash_attention_kernel.py":785:13 to :68)
#loc40 = loc("/home/ptoulme/miniconda3/envs/vllm/lib/python3.12/site-packages/jax/experimental/pallas/ops/tpu/splash_attention/splash_attention_kernel.py":788:38 to :57)
#loc41 = loc("/home/ptoulme/miniconda3/envs/vllm/lib/python3.12/site-packages/jax/experimental/pallas/ops/tpu/splash_attention/splash_attention_kernel.py":791:20 to :35)
#loc42 = loc("/home/ptoulme/miniconda3/envs/vllm/lib/python3.12/site-packages/jax/experimental/pallas/ops/tpu/splash_attention/splash_attention_kernel.py":791:12 to :36)
#loc43 = loc("/home/ptoulme/miniconda3/envs/vllm/lib/python3.12/site-packages/jax/experimental/pallas/ops/tpu/splash_attention/splash_attention_kernel.py":792:22 to :36)
#loc44 = loc("/home/ptoulme/miniconda3/envs/vllm/lib/python3.12/site-packages/jax/experimental/pallas/ops/tpu/splash_attention/splash_attention_kernel.py":792:13 to :36)
#loc45 = loc("/home/ptoulme/miniconda3/envs/vllm/lib/python3.12/site-packages/jax/experimental/pallas/ops/tpu/splash_attention/splash_attention_kernel.py":793:4 to :22)
#loc46 = loc("/home/ptoulme/miniconda3/envs/vllm/lib/python3.12/site-packages/jax/experimental/pallas/ops/tpu/splash_attention/splash_attention_kernel.py":793:24 to :42)
#loc47 = loc("/home/ptoulme/miniconda3/envs/vllm/lib/python3.12/site-packages/jax/experimental/pallas/ops/tpu/splash_attention/splash_attention_kernel.py":797:10 to :27)
#loc48 = loc("/home/ptoulme/miniconda3/envs/vllm/lib/python3.12/site-packages/jax/experimental/pallas/ops/tpu/splash_attention/splash_attention_kernel.py":800:8 to :25)
#loc49 = loc("/home/ptoulme/miniconda3/envs/vllm/lib/python3.12/site-packages/jax/experimental/pallas/ops/tpu/splash_attention/splash_attention_kernel.py":801:13 to :48)
#loc50 = loc("/home/ptoulme/miniconda3/envs/vllm/lib/python3.12/site-packages/jax/experimental/pallas/ops/tpu/splash_attention/splash_attention_kernel.py":804:33 to :49)
#loc51 = loc("/home/ptoulme/miniconda3/envs/vllm/lib/python3.12/site-packages/jax/experimental/pallas/ops/tpu/splash_attention/splash_attention_kernel.py":804:23 to :49)
#loc52 = loc("/home/ptoulme/miniconda3/envs/vllm/lib/python3.12/site-packages/jax/experimental/pallas/ops/tpu/splash_attention/splash_attention_kernel.py":804:23 to :58)
#loc53 = loc("/home/ptoulme/miniconda3/envs/vllm/lib/python3.12/site-packages/jax/experimental/pallas/ops/tpu/splash_attention/splash_attention_kernel.py":804:4 to :20)
#loc54 = loc("/home/ptoulme/miniconda3/envs/vllm/lib/python3.12/site-packages/jax/experimental/pallas/ops/tpu/splash_attention/splash_attention_kernel.py":814:11 to :30)
#loc55 = loc("/home/ptoulme/miniconda3/envs/vllm/lib/python3.12/site-packages/jax/experimental/pallas/ops/tpu/splash_attention/splash_attention_kernel.py":814:3 to :31)
#loc56 = loc("/home/ptoulme/miniconda3/envs/vllm/lib/python3.12/site-packages/jax/experimental/pallas/ops/tpu/splash_attention/splash_attention_kernel.py":816:8 to :26)
#loc57 = loc("/home/ptoulme/miniconda3/envs/vllm/lib/python3.12/site-packages/jax/experimental/pallas/ops/tpu/splash_attention/splash_attention_kernel.py":817:25 to :32)
#loc58 = loc("/home/ptoulme/miniconda3/envs/vllm/lib/python3.12/site-packages/jax/experimental/pallas/ops/tpu/splash_attention/splash_attention_kernel.py":818:18 to :36)
#loc59 = loc("/home/ptoulme/miniconda3/envs/vllm/lib/python3.12/site-packages/jax/experimental/pallas/ops/tpu/splash_attention/splash_attention_kernel.py":818:18 to :44)
#loc60 = loc("/home/ptoulme/miniconda3/envs/vllm/lib/python3.12/site-packages/jax/experimental/pallas/ops/tpu/splash_attention/splash_attention_kernel.py":818:17 to :65)
#loc61 = loc("/home/ptoulme/miniconda3/envs/vllm/lib/python3.12/site-packages/jax/experimental/pallas/ops/tpu/splash_attention/splash_attention_kernel.py":818:4 to :14)
#loc62 = loc("/home/ptoulme/miniconda3/envs/vllm/lib/python3.12/site-packages/jax/experimental/pallas/ops/tpu/splash_attention/splash_attention_kernel.py":825:4 to :22)
#loc63 = loc("/home/ptoulme/miniconda3/envs/vllm/lib/python3.12/site-packages/jax/experimental/pallas/ops/tpu/splash_attention/splash_attention_kernel.py":826:4 to :22)
#loc64 = loc("/home/ptoulme/miniconda3/envs/vllm/lib/python3.12/site-packages/jax/experimental/pallas/ops/tpu/splash_attention/splash_attention_kernel.py":827:4 to :22)
#loc65 = loc("/home/ptoulme/miniconda3/envs/vllm/lib/python3.12/site-packages/jax/experimental/pallas/ops/tpu/splash_attention/splash_attention_kernel.py":969:17 to 971:5)
#loc66 = loc("/home/ptoulme/miniconda3/envs/vllm/lib/python3.12/site-packages/jax/experimental/pallas/ops/tpu/splash_attention/splash_attention_kernel.py":977:17 to 979:5)
#loc67 = loc("flash_attention_kernel"(#loc1))
#loc68 = loc("_splash_attention_forward"(#loc2))
#loc69 = loc("_splash_attention_custom"(#loc3))
#loc70 = loc("_splash_attention"(#loc4))
#loc71 = loc("SplashAttentionKernel.__call__"(#loc5))
#loc72 = loc("benchmark_kernel.<locals>.splash_attention_kernel"(#loc6))
#loc73 = loc("benchmark_kernel"(#loc7))
#loc74 = loc("main"(#loc8))
#loc75 = loc("<module>"(#loc9))
#loc76 = loc("flash_attention_kernel"(#loc10))
#loc77 = loc("flash_attention_kernel.<locals>.init"(#loc11))
#loc78 = loc("flash_attention_kernel.<locals>.init"(#loc12))
#loc79 = loc("flash_attention_kernel.<locals>.init"(#loc13))
#loc80 = loc("_next_nonzero"(#loc14))
#loc81 = loc("flash_attention_kernel"(#loc15))
#loc82 = loc("_next_nonzero.<locals>.<lambda>"(#loc16))
#loc83 = loc("_next_nonzero"(#loc17))
#loc84 = loc("_next_nonzero"(#loc18))
#loc85 = loc("_next_nonzero"(#loc19))
#loc86 = loc("_next_nonzero"(#loc20))
#loc87 = loc("flash_attention_kernel"(#loc21))
#loc88 = loc("flash_attention_kernel.<locals>.body"(#loc22))
#loc89 = loc("flash_attention_kernel.<locals>.run"(#loc23))
#loc90 = loc("flash_attention_kernel.<locals>.body"(#loc24))
#loc91 = loc("flash_attention_kernel.<locals>.body"(#loc25))
#loc92 = loc("flash_attention_kernel.<locals>.body"(#loc26))
#loc93 = loc("flash_attention_kernel.<locals>.body"(#loc27))
#loc94 = loc("flash_attention_kernel.<locals>.body"(#loc28))
#loc95 = loc("_apply_mask_and_soft_cap"(#loc29))
#loc96 = loc("flash_attention_kernel.<locals>.body"(#loc30))
#loc97 = loc("_apply_mask_and_soft_cap"(#loc31))
#loc98 = loc("_apply_mask_and_soft_cap"(#loc32))
#loc99 = loc("CausalMask.__init__.<locals>.causal_mask_function"(#loc33))
#loc100 = loc("_apply_mask_and_soft_cap"(#loc34))
#loc101 = loc("_apply_mask_and_soft_cap"(#loc35))
#loc102 = loc("flash_attention_kernel.<locals>.body"(#loc36))
#loc103 = loc("flash_attention_kernel.<locals>.body"(#loc37))
#loc104 = loc("flash_attention_kernel.<locals>.body"(#loc38))
#loc105 = loc("flash_attention_kernel.<locals>.body"(#loc39))
#loc106 = loc("flash_attention_kernel.<locals>.body"(#loc40))
#loc107 = loc("flash_attention_kernel.<locals>.body"(#loc41))
#loc108 = loc("flash_attention_kernel.<locals>.body"(#loc42))
#loc109 = loc("flash_attention_kernel.<locals>.body"(#loc43))
#loc110 = loc("flash_attention_kernel.<locals>.body"(#loc44))
#loc111 = loc("flash_attention_kernel.<locals>.body"(#loc45))
#loc112 = loc("flash_attention_kernel.<locals>.body"(#loc46))
#loc113 = loc("flash_attention_kernel.<locals>.body"(#loc47))
#loc114 = loc("flash_attention_kernel.<locals>.body"(#loc48))
#loc115 = loc("flash_attention_kernel.<locals>.body"(#loc49))
#loc116 = loc("flash_attention_kernel.<locals>.body"(#loc50))
#loc117 = loc("flash_attention_kernel.<locals>.body"(#loc51))
#loc118 = loc("flash_attention_kernel.<locals>.body"(#loc52))
#loc119 = loc("flash_attention_kernel.<locals>.body"(#loc53))
#loc120 = loc("flash_attention_kernel"(#loc54))
#loc121 = loc("flash_attention_kernel"(#loc55))
#loc122 = loc("flash_attention_kernel.<locals>.end"(#loc56))
#loc123 = loc("flash_attention_kernel.<locals>.end"(#loc57))
#loc124 = loc("flash_attention_kernel.<locals>.end"(#loc58))
#loc125 = loc("flash_attention_kernel.<locals>.end"(#loc59))
#loc126 = loc("flash_attention_kernel.<locals>.end"(#loc60))
#loc127 = loc("flash_attention_kernel.<locals>.end"(#loc61))
#loc128 = loc("flash_attention_kernel.<locals>.end"(#loc62))
#loc129 = loc("flash_attention_kernel.<locals>.end"(#loc63))
#loc130 = loc("flash_attention_kernel.<locals>.end"(#loc64))
#loc131 = loc("_splash_attention_forward.<locals>.k_index_map"(#loc65))
#loc132 = loc("_splash_attention_forward.<locals>.v_index_map"(#loc66))
#loc133 = loc(callsite(#loc74 at #loc75))
#loc134 = loc(callsite(#loc73 at #loc74))
#loc135 = loc(callsite(#loc72 at #loc73))
#loc136 = loc(callsite(#loc71 at #loc72))
#loc137 = loc(callsite(#loc73 at #loc133))
#loc138 = loc(callsite(#loc72 at #loc134))
#loc139 = loc(callsite(#loc71 at #loc135))
#loc140 = loc(callsite(#loc70 at #loc136))
#loc141 = loc(callsite(#loc72 at #loc137))
#loc142 = loc(callsite(#loc71 at #loc138))
#loc143 = loc(callsite(#loc70 at #loc139))
#loc144 = loc(callsite(#loc69 at #loc140))
#loc145 = loc(callsite(#loc71 at #loc141))
#loc146 = loc(callsite(#loc70 at #loc142))
#loc147 = loc(callsite(#loc69 at #loc143))
#loc148 = loc(callsite(#loc68 at #loc144))
#loc149 = loc(callsite(#loc70 at #loc145))
#loc150 = loc(callsite(#loc69 at #loc146))
#loc151 = loc(callsite(#loc68 at #loc147))
#loc152 = loc(callsite(#loc87 at #loc148))
#loc153 = loc(callsite(#loc69 at #loc149))
#loc154 = loc(callsite(#loc68 at #loc150))
#loc155 = loc(callsite(#loc87 at #loc151))
#loc156 = loc(callsite(#loc89 at #loc152))
#loc157 = loc(callsite(#loc68 at #loc153))
#loc158 = loc(callsite(#loc81 at #loc154))
#loc159 = loc(callsite(#loc87 at #loc154))
#loc160 = loc(callsite(#loc89 at #loc155))
#loc161 = loc(callsite(#loc96 at #loc156))
#loc162 = loc(callsite(#loc131 at #loc154))
#loc163 = loc(callsite(#loc132 at #loc154))
#loc164 = loc(callsite(#loc67 at #loc157))
#loc165 = loc(callsite(#loc76 at #loc157))
#loc166 = loc(callsite(#loc81 at #loc157))
#loc167 = loc(callsite(#loc83 at #loc158))
#loc168 = loc(callsite(#loc86 at #loc158))
#loc169 = loc(callsite(#loc87 at #loc157))
#loc170 = loc(callsite(#loc89 at #loc159))
#loc171 = loc(callsite(#loc96 at #loc160))
#loc172 = loc(callsite(#loc100 at #loc161))
#loc173 = loc(callsite(#loc120 at #loc157))
#loc174 = loc(callsite(#loc121 at #loc157))
#loc175 = loc(callsite(#loc131 at #loc157))
#loc176 = loc(callsite(#loc86 at #loc162))
#loc177 = loc(callsite(#loc132 at #loc157))
#loc178 = loc(callsite(#loc86 at #loc163))
#loc179 = loc("/eq"(#loc164))
#loc180 = loc("/cond"(#loc165))
#loc181 = loc(callsite(#loc77 at #loc165))
#loc182 = loc(callsite(#loc78 at #loc165))
#loc183 = loc(callsite(#loc79 at #loc165))
#loc184 = loc(callsite(#loc80 at #loc166))
#loc185 = loc(callsite(#loc82 at #loc167))
#loc186 = loc(callsite(#loc84 at #loc166))
#loc187 = loc(callsite(#loc85 at #loc166))
#loc188 = loc(callsite(#loc82 at #loc168))
#loc189 = loc("/cond"(#loc169))
#loc190 = loc(callsite(#loc88 at #loc170))
#loc191 = loc(callsite(#loc90 at #loc170))
#loc192 = loc(callsite(#loc91 at #loc170))
#loc193 = loc(callsite(#loc92 at #loc170))
#loc194 = loc(callsite(#loc93 at #loc170))
#loc195 = loc(callsite(#loc94 at #loc170))
#loc196 = loc(callsite(#loc95 at #loc171))
#loc197 = loc(callsite(#loc97 at #loc171))
#loc198 = loc(callsite(#loc98 at #loc171))
#loc199 = loc(callsite(#loc99 at #loc172))
#loc200 = loc(callsite(#loc101 at #loc171))
#loc201 = loc(callsite(#loc102 at #loc170))
#loc202 = loc(callsite(#loc103 at #loc170))
#loc203 = loc(callsite(#loc104 at #loc170))
#loc204 = loc(callsite(#loc105 at #loc170))
#loc205 = loc(callsite(#loc106 at #loc170))
#loc206 = loc(callsite(#loc107 at #loc170))
#loc207 = loc(callsite(#loc108 at #loc170))
#loc208 = loc(callsite(#loc109 at #loc170))
#loc209 = loc(callsite(#loc110 at #loc170))
#loc210 = loc(callsite(#loc111 at #loc170))
#loc211 = loc(callsite(#loc112 at #loc170))
#loc212 = loc(callsite(#loc113 at #loc170))
#loc213 = loc(callsite(#loc114 at #loc170))
#loc214 = loc(callsite(#loc115 at #loc170))
#loc215 = loc(callsite(#loc116 at #loc170))
#loc216 = loc(callsite(#loc117 at #loc170))
#loc217 = loc(callsite(#loc118 at #loc170))
#loc218 = loc(callsite(#loc119 at #loc170))
#loc219 = loc("/eq"(#loc173))
#loc220 = loc("/cond"(#loc174))
#loc221 = loc(callsite(#loc122 at #loc174))
#loc222 = loc(callsite(#loc123 at #loc174))
#loc223 = loc(callsite(#loc124 at #loc174))
#loc224 = loc(callsite(#loc125 at #loc174))
#loc225 = loc(callsite(#loc126 at #loc174))
#loc226 = loc(callsite(#loc127 at #loc174))
#loc227 = loc(callsite(#loc128 at #loc174))
#loc228 = loc(callsite(#loc129 at #loc174))
#loc229 = loc(callsite(#loc130 at #loc174))
#loc230 = loc(callsite(#loc85 at #loc175))
#loc231 = loc(callsite(#loc82 at #loc176))
#loc232 = loc(callsite(#loc85 at #loc177))
#loc233 = loc(callsite(#loc82 at #loc178))
#loc234 = loc("/swap"(#loc181))
#loc235 = loc("/swap"(#loc182))
#loc236 = loc("/swap"(#loc183))
#loc237 = loc("/get"(#loc184))
#loc238 = loc("/convert_element_type"(#loc185))
#loc239 = loc("/gt"(#loc186))
#loc240 = loc("/get"(#loc187))
#loc241 = loc("/convert_element_type"(#loc188))
#loc242 = loc("/get"(#loc190))
#loc243 = loc("/get"(#loc191))
#loc244 = loc("/get"(#loc192))
#loc245 = loc("/get"(#loc193))
#loc246 = loc("/dot_general"(#loc194))
#loc247 = loc("/mul"(#loc195))
#loc248 = loc("/iota"(#loc196))
#loc249 = loc("/add"(#loc197))
#loc250 = loc("/get"(#loc198))
#loc251 = loc("/ge"(#loc199))
#loc252 = loc("/select_n"(#loc200))
#loc253 = loc("/reduce_max"(#loc201))
#loc254 = loc("/max"(#loc202))
#loc255 = loc("/sub"(#loc203))
#loc256 = loc("/exp"(#loc204))
#loc257 = loc("/reduce_sum"(#loc205))
#loc258 = loc("/sub"(#loc206))
#loc259 = loc("/exp"(#loc207))
#loc260 = loc("/mul"(#loc208))
#loc261 = loc("/add"(#loc209))
#loc262 = loc("/swap"(#loc210))
#loc263 = loc("/swap"(#loc211))
#loc264 = loc("/get"(#loc212))
#loc265 = loc("/convert_element_type"(#loc213))
#loc266 = loc("/dot_general"(#loc214))
#loc267 = loc("/get"(#loc215))
#loc268 = loc("/mul"(#loc216))
#loc269 = loc("/add"(#loc217))
#loc270 = loc("/swap"(#loc218))
#loc271 = loc("/get"(#loc221))
#loc272 = loc("/div"(#loc222))
#loc273 = loc("/get"(#loc223))
#loc274 = loc("/mul"(#loc224))
#loc275 = loc("/convert_element_type"(#loc225))
#loc276 = loc("/swap"(#loc226))
#loc277 = loc("/swap"(#loc227))
#loc278 = loc("/swap"(#loc228))
#loc279 = loc("/swap"(#loc229))
#loc280 = loc("/get"(#loc230))
#loc281 = loc("/convert_element_type"(#loc231))
#loc282 = loc("/get"(#loc232))
#loc283 = loc("/convert_element_type"(#loc233))
