HloModule jit_splash_attention_kernel, entry_computation_layout={(bf16[8,2048,128]{2,1,0:T(8,128)(2,1)}, bf16[8,2048,128]{2,1,0:T(8,128)(2,1)}, bf16[8,2048,128]{2,1,0:T(8,128)(2,1)})->bf16[8,2048,128]{2,1,0:T(8,128)(2,1)}}, allow_spmd_sharding_propagation_to_parameters={true,true,true}, allow_spmd_sharding_propagation_to_output={true}

%_splash_attention.26 (Arg_0.8: s8[1,2,2], Arg_1.9: s8[1,2,2], Arg_2.10: s32[2048], Arg_3.11: s8[1,2,2], Arg_4.12: s8[1,2,2], Arg_5.13: s32[2048], Arg_6.14: s8[1,2,2], Arg_7.15: s8[1,2,2], Arg_8.16: s32[2048], Arg_9.17: bf16[8,2048,128], Arg_10.18: bf16[8,2048,128], Arg_11.19: bf16[8,2048,128]) -> bf16[8,2048,128] {
  %Arg_3.11 = s8[1,2,2]{2,1,0} parameter(3), metadata={op_name="jit(splash_attention_kernel)/jit(main)/splash_attention_kernel/splash_kernel_b1024_h8_s2048/pjit"}
  %Arg_4.12 = s8[1,2,2]{2,1,0} parameter(4), metadata={op_name="jit(splash_attention_kernel)/jit(main)/splash_attention_kernel/splash_kernel_b1024_h8_s2048/pjit"}
  %Arg_5.13 = s32[2048]{0} parameter(5), metadata={op_name="jit(splash_attention_kernel)/jit(main)/splash_attention_kernel/splash_kernel_b1024_h8_s2048/pjit"}
  %Arg_6.14 = s8[1,2,2]{2,1,0} parameter(6), metadata={op_name="jit(splash_attention_kernel)/jit(main)/splash_attention_kernel/splash_kernel_b1024_h8_s2048/pjit"}
  %Arg_7.15 = s8[1,2,2]{2,1,0} parameter(7), metadata={op_name="jit(splash_attention_kernel)/jit(main)/splash_attention_kernel/splash_kernel_b1024_h8_s2048/pjit"}
  %Arg_8.16 = s32[2048]{0} parameter(8), metadata={op_name="jit(splash_attention_kernel)/jit(main)/splash_attention_kernel/splash_kernel_b1024_h8_s2048/pjit"}
  %Arg_0.8 = s8[1,2,2]{2,1,0} parameter(0), metadata={op_name="jit(splash_attention_kernel)/jit(main)/splash_attention_kernel/splash_kernel_b1024_h8_s2048/pjit"}
  %Arg_1.9 = s8[1,2,2]{2,1,0} parameter(1), metadata={op_name="jit(splash_attention_kernel)/jit(main)/splash_attention_kernel/splash_kernel_b1024_h8_s2048/pjit"}
  %Arg_9.17 = bf16[8,2048,128]{2,1,0} parameter(9), metadata={op_name="jit(splash_attention_kernel)/jit(main)/splash_attention_kernel/splash_kernel_b1024_h8_s2048/pjit"}
  %Arg_10.18 = bf16[8,2048,128]{2,1,0} parameter(10), metadata={op_name="jit(splash_attention_kernel)/jit(main)/splash_attention_kernel/splash_kernel_b1024_h8_s2048/pjit"}
  %Arg_11.19 = bf16[8,2048,128]{2,1,0} parameter(11), metadata={op_name="jit(splash_attention_kernel)/jit(main)/splash_attention_kernel/splash_kernel_b1024_h8_s2048/pjit"}
  %Arg_2.10 = s32[2048]{0} parameter(2), metadata={op_name="jit(splash_attention_kernel)/jit(main)/splash_attention_kernel/splash_kernel_b1024_h8_s2048/pjit"}
  %broadcast.20 = s32[2048,128]{1,0} broadcast(%Arg_2.10), dimensions={0}, metadata={op_name="jit(splash_attention_kernel)/jit(main)/splash_attention_kernel/splash_kernel_b1024_h8_s2048/jit(_splash_attention)/broadcast_in_dim" source_file="/home/ptoulme/miniconda3/envs/vllm/lib/python3.12/site-packages/jax/experimental/pallas/ops/tpu/splash_attention/splash_attention_kernel.py" source_line=1045}
  %custom-call.21 = (f32[1024,128]{1,0}, f32[1024,128]{1,0}, f32[1024,128]{1,0}, bf16[8,2048,128]{2,1,0}) custom-call(%Arg_0.8, %Arg_1.9, %Arg_9.17, %Arg_10.18, %Arg_11.19, /*index=5*/%broadcast.20), custom_call_target="tpu_custom_call", operand_layout_constraints={s8[1,2,2]{2,1,0}, s8[1,2,2]{2,1,0}, bf16[8,2048,128]{2,1,0}, bf16[8,2048,128]{2,1,0}, bf16[8,2048,128]{2,1,0}, s32[2048,128]{1,0}}, metadata={op_name="jit(splash_attention_kernel)/jit(main)/splash_attention_kernel/splash_kernel_b1024_h8_s2048/jit(_splash_attention)/splash_mha_fwd_c602b16d/pallas_call" source_file="/home/ptoulme/miniconda3/envs/vllm/lib/python3.12/site-packages/jax/experimental/pallas/ops/tpu/splash_attention/splash_attention_kernel.py" source_line=1100}, backend_config={"custom_call_config": {"body": "…", "serialization_format": 1, "needs_layout_passes": true}}
  %get-tuple-element.22 = f32[1024,128]{1,0} get-tuple-element(%custom-call.21), index=0, metadata={op_name="jit(splash_attention_kernel)/jit(main)/splash_attention_kernel/splash_kernel_b1024_h8_s2048/jit(_splash_attention)/splash_mha_fwd_c602b16d/pallas_call" source_file="/home/ptoulme/miniconda3/envs/vllm/lib/python3.12/site-packages/jax/experimental/pallas/ops/tpu/splash_attention/splash_attention_kernel.py" source_line=1100}
  %get-tuple-element.23 = f32[1024,128]{1,0} get-tuple-element(%custom-call.21), index=1, metadata={op_name="jit(splash_attention_kernel)/jit(main)/splash_attention_kernel/splash_kernel_b1024_h8_s2048/jit(_splash_attention)/splash_mha_fwd_c602b16d/pallas_call" source_file="/home/ptoulme/miniconda3/envs/vllm/lib/python3.12/site-packages/jax/experimental/pallas/ops/tpu/splash_attention/splash_attention_kernel.py" source_line=1100}
  %get-tuple-element.24 = f32[1024,128]{1,0} get-tuple-element(%custom-call.21), index=2, metadata={op_name="jit(splash_attention_kernel)/jit(main)/splash_attention_kernel/splash_kernel_b1024_h8_s2048/jit(_splash_attention)/splash_mha_fwd_c602b16d/pallas_call" source_file="/home/ptoulme/miniconda3/envs/vllm/lib/python3.12/site-packages/jax/experimental/pallas/ops/tpu/splash_attention/splash_attention_kernel.py" source_line=1100}
  ROOT %get-tuple-element.25 = bf16[8,2048,128]{2,1,0} get-tuple-element(%custom-call.21), index=3, metadata={op_name="jit(splash_attention_kernel)/jit(main)/splash_attention_kernel/splash_kernel_b1024_h8_s2048/jit(_splash_attention)/splash_mha_fwd_c602b16d/pallas_call" source_file="/home/ptoulme/miniconda3/envs/vllm/lib/python3.12/site-packages/jax/experimental/pallas/ops/tpu/splash_attention/splash_attention_kernel.py" source_line=1100}
}

ENTRY %main.28 (Arg_0.1: bf16[8,2048,128], Arg_1.2: bf16[8,2048,128], Arg_2.3: bf16[8,2048,128]) -> bf16[8,2048,128] {
  %constant.4 = s8[1,2,2]{2,1,0} constant({ { { 0, 0 }, { 0, 1 } } })
  %constant.5 = s8[1,2,2]{2,1,0} constant({ { { 1, 0 }, { 2, 1 } } })
  %constant.6 = s32[2048]{0} constant({...})
  %constant.7 = s8[1,2,2]{2,1,0} constant({ { { 0, 0 }, { 1, 1 } } })
  %Arg_0.1 = bf16[8,2048,128]{2,1,0} parameter(0), metadata={op_name="q"}
  %Arg_1.2 = bf16[8,2048,128]{2,1,0} parameter(1), metadata={op_name="k"}
  %Arg_2.3 = bf16[8,2048,128]{2,1,0} parameter(2), metadata={op_name="v"}
  ROOT %call.27 = bf16[8,2048,128]{2,1,0} call(%constant.4, %constant.5, %constant.6, %constant.4, %constant.5, /*index=5*/%constant.6, %constant.7, %constant.5, %constant.6, %Arg_0.1, /*index=10*/%Arg_1.2, %Arg_2.3), to_apply=%_splash_attention.26
}

